MRTE/drlte/lib/checkpoints/agent1_ep20.pt (torch, 109643 bytes, 56 tensors)

gcn1.bias f4 [32]
00000000: 9357 f83d 0000 0000 774e c03e a05f 8b3e
00000010: cabb 203e 4e95 743e f2e5 a63e 4427 a6be
00000020: 0000 0000 720f 6d3d 19b7 abbc 5cd0 3e3e
00000030: 67f3 7d3e 0000 0000 0000 0000 ccec 6b3e
00000040: 1bc6 453d cb44 ae3e ce3b f3bc 99f9 133b
00000050: 2751 823c 3f5f a83e 9e25 643d 36d8 993e
00000060: bb5a ba3e f9c6 8a3e dcff 323e 080c 063c
00000070: 382a 133e 0000 0000 0000 0000 092d 5e3e
0.121260785 0.0 0.37559864 0.27221394 0.15696636 0.2388508 0.3259731 -0.32451832
0.0 0.057876058 -0.020961331 0.1863417 0.24799882 0.0 0.0 0.2303955
0.04828463 0.3403686 -0.029691603 0.0022579192 0.015907837 0.32885167 0.055699937 0.30047768
0.36397347 0.2710493 0.17480415 0.008181579 0.14371574 0.0 0.0 0.21696867

gcn1.lin.weight f4 [32, 6]
00000000: 3347 1f3e 51cc 473e 74c3 8a3f 533c 51bd
00000010: 7ece 5e40 9549 af3e 6fd7 83be 42ef 483d
00000020: c9c8 7abe 07b8 43bd fef4 c8be 9bde a1bd
00000030: 1008 243e db40 dfbe 7b4b 65bf b8ee 803e
00000040: 8768 99bf aa4e a63f 9f0f 9f3e 9032 4fbe
00000050: 3b8d 2abf 5be3 813e d413 89bf 1e1e 923f
00000060: 5d32 af3c fa2c 253f 2357 873f 0063 ed3d
00000070: c117 3440 ca7e 1cbf 6e70 fabd 5cdf a43e
00000080: 394a 543f 4bd1 593e 8e79 5740 6488 d2bd
00000090: e144 8fbc ea0c b6be bfcb 59bf 7508 f03e
000000a0: a92f a3bf 3083 c73f edce 273a 6f47 773f
000000b0: ad76 443f 77d3 77be 8eb0 6140 0324 14bf
000000c0: aaca a8be a358 763e 6672 6cbc 235b 83be
000000d0: 1d21 7a3e 96fd 55be 272a 633e 8327 ee3e
000000e0: 5085 853f 4689 1e3d 02a4 2940 1ac8 de3d
000000f0: 3df1 65bd b0b2 c9be 7976 113e 982a 183c
00000100: ba51 86be 08f1 b6bc e991 b33e ceaa 143e
00000110: 1e99 6d3f 3584 97be 148f 6340 1e09 35bd
00000120: 645f aebd 0b56 24be 02c4 66bf 3bc8 d33e
00000130: 9828 7bbf 2d98 ec3f 4a9c bcbe 0caa 923d
00000140: 63a1 963e b270 fbbd a527 6fbe 7b94 843c
00000150: 1809 acbe 8e35 76be 6626 903d 95b2 27be
00000160: 8aa9 84bc 7550 acbe 1316 a33e 5b0c e6bd
00000170: 319d a0bf 044f 683e 7ade 8b3d 6fe8 3d3f
00000180: c57e ca3e 96f3 2a3f cd27 9f3f d049 873d
00000190: 990e 4940 77cc f23d 97fe 213e 4526 9dbe
000001a0: 9357 4fbf 780f f33e fa1a d3bf 12e9 893f
000001b0: fe7f 43be 0ab6 62c0 b51f 6a3e a506 d9bc
000001c0: e9d2 3540 3d27 a340 b848 973e 61e3 0d3f
000001d0: f604 fb3e aa2a 853e d9da 8740 0c86 603f
000001e0: ba46 be3e 2917 2e3f d149 a13f 0987 8a3e
000001f0: 5216 2e40 ea0c 04bf ffc2 e33e 01ce 343f
00000200: 14d8 85be 43f5 583e 34d3 b13f 992d 0640
00000210: 5ca1 383e b736 44be 4573 423f 3da1 12be
00000220: 099e 6c40 f5b1 eb3e bc82 d63e 1fac d2be
00000230: 54ab 0fbf 5161 653e ca8c 08c0 c7ea 623f
00000240: aa93 203f 311d 05bf d5e4 c0be 0c33 50be
00000250: 9cf8 11c0 6143 6f3f 6935 2f3e 6c15 fdbe
00000260: 43a0 82bf 931f 813e 3a83 293f 25cc a63f
00000270: 1c11 403d 5143 b63e 29e8 4b3f e503 013e
00000280: 4137 4940 77a4 f63e 387d ce3e 17bd da3e
00000290: a647 943f 48a8 dc3d 8320 3d40 2039 0abe
000002a0: 83ec c93d 5fb1 47bd a050 26bf 85cb 0f3f
000002b0: b827 f9bf 164e 623f dcb2 9abe f896 c6be
000002c0: 64de 9bbe 2634 c3be 68ef debd 7d53 ba3e
000002d0: cf8e 30be 1834 71be 00a3 22be 3a83 453d
000002e0: 5bbc 3f3d 26b2 a33c 384b c63c 7ca9 833f
000002f0: 1835 05bf 45ec d63e b67d 58c0 36d7 aabf
0.15554504 0.19511534 1.0840898 -0.05108292 3.4813533 0.34235826 -0.257503 0.0490563
-0.24490656 -0.047782924 -0.39249414 -0.07903787 0.160187 -0.43604168 -0.895683 0.25182128
-1.1985024 1.2992756 0.31066605 -0.20234132 -0.6662175 0.2536877 -1.0709176 1.1415441
0.02138632 0.64521754 1.0573467 0.115911484 2.8139498 -0.61130965 -0.122284755 0.3220166
0.82925755 0.21271245 3.366794 -0.10279921 -0.017488899 -0.35556728 -0.85076517 0.46881452
-1.274892 1.558691 0.0006401379 0.96593374 0.76743585 -0.24201761 3.526401 -0.5786745
-0.3296712 0.2405725 -0.014431572 -0.2565547 0.24426694 -0.20897517 0.22184049 0.4651452
1.0431309 0.038705133 2.6506352 0.1087801 -0.056138266 -0.3939414 0.1420535 0.009287499
-0.26234227 -0.02233173 0.35072258 0.14518282 0.92811763 -0.29593053 3.5556078 -0.044198148
-0.08514288 -0.16048448 -0.90142834 0.413637 -0.98108816 1.848394 -0.3683799 0.0716134
0.29420003 -0.12277354 -0.23354967 0.016184082 -0.33600688 -0.24043867 0.07038574 -0.16376717
-0.016194124 -0.33655134 0.3185278 -0.11232825 -1.2547971 0.22686392 0.068295434 0.7418279
0.39549842 0.6677793 1.2434021 0.066058755 3.141516 0.11855405 0.15819775 -0.3069326
-0.80993 0.4747274 -1.6492608 1.0774252 -0.19091794 -3.5423608 0.22863658 -0.026492426
2.840998 5.09854 0.29547668 0.5542508 0.49027222 0.26009113 4.245465 0.8770454
0.37163335 0.6800409 1.2600652 0.2705615 2.7201123 -0.51582205 0.44484708 0.70626837
-0.26141417 0.2118731 1.3892579 2.096533 0.18030304 -0.19161497 0.7595714 -0.1431932
3.6971457 0.46034208 0.41896617 -0.41146943 -0.561208 0.22400405 -2.133593 0.8863949
0.6272532 -0.5199767 -0.37674585 -0.20331973 -2.280799 0.9346219 0.17110218 -0.49430406
-1.0205158 0.25219402 0.6621586 1.303105 0.046891317 0.35598233 0.79651123 0.12599142
3.1439974 0.48172352 0.4032991 0.4272239 1.1584365 0.107742846 2.9551094 -0.13498354
0.09859564 -0.04875314 -0.64966774 0.5616992 -1.9465246 0.884004 -0.30214584 -0.38787055
-0.30443108 -0.38125724 -0.10885507 0.36391822 -0.17241977 -0.23555028 -0.15882492 0.04822085
0.04681049 0.019982409 0.024205789 1.0286098 -0.5203414 0.41977134 -3.3826728 -1.3346927

gcn2.bias f4 [32]
00000000: 140a 9b3f bcb8 443f ce31 a3bd af0a cbbc
00000010: 8a3f 1fbe 4480 a1bd 0000 0000 01e8 de3e
00000020: 5266 2a3f 5f46 7cbc 9487 fe3e 69a8 cabe
00000030: a790 10be 8b9c 2b3d 0000 0000 b9b2 923f
00000040: 73ec 0d3f f131 9fbb cdc7 15bd 675d 9a3f
00000050: f70b 873f a636 49bb d33d 08be fed9 b2bd
00000060: 65e6 16be 6a4c 813d 4746 60bd 25b3 f2bd
00000070: 0000 0000 0000 0000 adf2 433f 5ba3 52bd
1.2112451 0.7684438 -0.07968484 -0.024785368 -0.15551582 -0.07885793 0.0 0.4353638
0.6656238 -0.015397637 0.49712813 -0.39581612 -0.1411768 0.041897338 0.0 1.1460792
0.5543892 -0.0048582484 -0.036567498 1.2059754 1.0550526 -0.003070274 -0.13304834 -0.08732985
-0.14736326 0.06313403 -0.05475452 -0.11850575 0.0 0.0 0.7654217 -0.05142532

gcn2.lin.weight f4 [32, 32]
00000000: 488e c7bd 60c7 72be f5a5 9f3f 7906 eb3e
00000010: 3d13 7cbf 3af2 b0bd 8d8c a23f 5a14 35c1
00000020: ea11 b1bd 57fb 30bf 67e8 09be dfe1 c1bc
00000030: 9592 aa3f 5287 b3bc f6ac 9abd f770 563f
00000040: 7e34 4cbe ce6d 843f 36c0 5540 a86b 023e
00000050: f91f 26bf 5836 163e 62df 99bc 9981 703f
00000060: a564 d73e 6172 833f b2a4 5dbe 7b9b cabe
00000070: a77f 003f 8687 8b3e 5d9a 983e e059 3140
00000080: 9780 8bbe 992c 933e 587d a13f 3b55 643f
00000090: 1a17 2fbf f5a1 a1be 85f4 9c3f bf0c 2dc1
000000a0: cfe4 733e 5a4d 79be 68c0 c03d c7dc 583d
000000b0: f9a7 da3f 94a2 c93d 9ea2 cf3d e160 733f
000000c0: 7358 fbbe 2b07 3f3f 86f5 5e40 4517 95be
000000d0: f5ae 2dbf 580b 6e3e aeef 323e ef20 393f
000000e0: 138c 653f 4769 4e3f af0b a03c addf c3bd
000000f0: d3e7 823f b882 86be 5124 4d3e e884 2b40
00000100: b3a3 a43f a3c5 5f3e b9db bdbe 3e04 cd3d
00000110: 0ff6 913f 648e 7f3f e217 7dbf 96d7 1f41
00000120: f15d a5bd 6911 813f 4e17 b43c 72a6 9c3f
00000130: c0e5 52bf d783 3bbd ad07 2e3e fd93 6fbe
00000140: 3f45 643f 872c 87bf 17c4 053f 7a04 983f
00000150: be34 643f bc12 6a3e 4f9f 9d3f d61f 70bf
00000160: 3e5c 09bf cceb 443e b90f 993f 67e1 3a3f
00000170: 008e b5bf 48ad 8fbe 2ebd 1c3e 7bf6 c6bf
00000180: 3b19 57be e36d 07bd 3e48 213e 0417 b13e
00000190: d49c 4ebf 5372 d5be 82a8 1b3d d1df 65be
000001a0: c7e8 93be 00b7 b5be dbbc 0cbd 7ca1 1d3e
000001b0: 1728 a93d 543e 9a3e 1d8f f73d 8dca e53e
000001c0: 98f9 f3be da2a eb3e d1ff 20be dc2a a5be
000001d0: 558b 34bf 070d 4abe 939c bbbe 2f4c f43e
000001e0: 6837 ca3e 28bd aa3e 290a 0fbf 1ca2 03bf
000001f0: 2ec6 27be 2a4c 5d3e e61e c93d 61d1 2bbe
00000200: a7a1 1dbe 4904 5b3d ba31 053f 191d bb3e
00000210: 3b7a 52bf 9aff b7be 4f9d 293f 81b2 973e
00000220: f641 57be 0279 acbe 9e13 153e f332 e0bd
00000230: e7c5 063f 6336 94bd 8833 3dbe 2272 1a3f
00000240: 3ed1 3ebf bc6e 0d3f 6342 763c de48 98bd
00000250: 5c9d 0ebf 8472 a8be 840f 93be 9f9a 813e
00000260: 6d06 5cbd ce5c 8e3e 9e2b 41be 0d4f e1be
00000270: ddeb e73e b6d7 f8bd 8489 9bbe 63b1 bcbe
00000280: d096 26bf 5cea aebc 80bc f53e 05fe 18be
00000290: cb3d dbbe 8a71 0dbf 6f81 453e 07ab 203d
000002a0: 7664 92be 1b8c 4dbf 285a a93d 2aec 72be
000002b0: e840 803e f8d9 31bd dc89 2cbe 9b3b e73d
000002c0: c69d 57bf b7b6 de3e afba cf3e 46f4 cf3d
000002d0: f0b5 09bf 8b56 103e e88a adbc 3808 b5bd
000002e0: 5009 b83e 29ce bc3e 8dc7 98be 4d17 2cbf
000002f0: f017 1f3e d82e 9a3e cb1d 103d e682 04be
00000300: d0fe 593e cbc2 773e 5c87 b9bd 58bd 21be
00000310: 276d 393e 7380 31be 5c4e e6bd f902 0a3e
00000320: b276 bf3d 42ad 8dbe 032b 80bd bd98 5dbe
00000330: 0917 623e db75 f93d e653 87bd 8997 1abe
00000340: d532 653e f0f9 7ebe 7894 d83d ac87 79be
00000350: 021e 443d 9bc0 92be 8871 cd3d f297 5cbe
00000360: b0e3 3fbe ce94 8e3e 8a65 0f3e aee2 3b3d
00000370: d29a 653e 8462 963d aad1 06be e32c 8c3e
00000380: 0c90 7e3f b604 9abd b3b1 7fbe 4463 fcbe
00000390: 2dfc 9b3e 28d0 403f c50d b4be d5ed 2ac1
000003a0: a053 bc3d bc50 2d3f 2a90 223d 2ddf ae3f
000003b0: ff4e 053f 0b12 3ebc c0bc bbbd 9132 a63e
000003c0: 4d29 f73e 2702 33bf 946c cb40 87e8 9f3f
000003d0: b3a0 313e 1af0 b73e 63fe a13f 02c6 a8bf
000003e0: 254a 57bf 54f9 ce3f 728a 9e3f 8398 2b3f
000003f0: 5018 adbf 9ac9 8ebd a8b0 81be b798 1140
-0.09743935 -0.23708868 1.2472521 0.45903376 -0.98466855 -0.08639951 1.2699143 -11.317469
-0.08645995 -0.69133514 -0.1346756 -0.023667274 1.3325983 -0.021915112 -0.07552521 0.8376612
-0.19941899 1.034601 3.3398566 0.1273638 -0.64892536 0.14669168 -0.018783275 0.9394775
0.42068973 1.0269281 -0.21644858 -0.39571747 0.5019478 0.27251834 0.2980527 2.7711105
-0.27246544 0.28744963 1.2616377 0.8919255 -0.68394625 -0.31568876 1.2262121 -10.815612
0.23817752 -0.24345914 0.094116986 0.052944925 1.7082511 0.098454624 0.10138439 0.950697
-0.4909092 0.7462031 3.4837356 -0.29119316 -0.6784509 0.23246515 0.17474243 0.7231588
0.8966686 0.8062939 0.019536821 -0.09564147 1.0226997 -0.26271605 0.20033385 2.679987
1.2862457 0.21852736 -0.37081698 0.10010575 1.1403216 0.99826646 -0.9886457 9.990133
-0.080745585 1.0083438 0.021983769 1.2238295 -0.8238182 -0.04578003 0.16995116 -0.23396297
0.8916816 -1.0560464 0.52252334 1.1876366 0.8914298 0.22858709 1.2314242 -0.9379858
-0.53656375 0.19230574 1.1957923 0.73000187 -1.418396 -0.2806189 0.15306541 -1.554397
-0.21005718 -0.03306378 0.15750214 0.34587872 -0.8070805 -0.41688785 0.0380025 -0.2244866
-0.28888533 -0.3549118 -0.034359794 0.15393633 0.082596 0.30125678 0.120878436 0.44881096
-0.47651362 0.4593113 -0.15722586 -0.32259262 -0.70525104 -0.19731532 -0.36642894 0.47714373
0.39495397 0.3334744 -0.5587488 -0.51419234 -0.16384193 0.21611086 0.098203465 -0.1677909
-0.15393697 0.053470884 0.52029 0.36545637 -0.8221776 -0.35937196 0.6625566 0.29628375
-0.21021256 -0.33686072 0.14558265 -0.10947218 0.52645725 -0.07236936 -0.18476689 0.603304
-0.7453803 0.5524709 0.015030476 -0.07435773 -0.5570886 -0.32899868 -0.28722775 0.2531328
-0.053717066 0.2780518 -0.18864295 -0.44005623 0.45297137 -0.121505186 -0.30378354 -0.36854085
-0.6507387 -0.021351986 0.47995377 -0.14940651 -0.42820582 -0.5525137 0.19287656 0.039225604
-0.2859227 -0.8029191 0.08269149 -0.23722902 0.2504952 -0.04342076 -0.16849464 0.11290666
-0.8422512 0.43498775 0.40572116 0.10154013 -0.5379324 0.14095514 -0.0211844 -0.08839458
0.35944605 0.36876038 -0.29839745 -0.67223054 0.15536475 0.30113864 0.035184663 -0.12940559
0.2128861 0.24195401 -0.09059021 -0.15794885 0.18108045 -0.17334156 -0.112454146 0.13477696
0.09348811 -0.27671248 -0.06258204 -0.21640296 0.220791 0.12180682 -0.06607799 -0.15096869
0.22382672 -0.24900031 0.10575193 -0.24368161 0.04788018 -0.2866257 0.1003142 -0.21542338
-0.187392 0.27847904 0.14003578 0.045870475 0.2242234 0.07343009 -0.13165918 0.27377996
0.9943855 -0.0752043 -0.2497013 -0.49294484 0.30465832 0.7531762 -0.35166755 -10.683064
0.09195638 0.67701316 0.039688267 1.3661858 0.52073663 -0.0116009815 -0.091668606 0.32460454
0.48273697 -0.6992516 6.357004 1.2492837 0.17346458 0.3592537 1.2655758 -1.3185427
-0.8409751 1.6169839 1.2386 0.6702959 -1.3523045 -0.06972046 -0.2533009 2.274946

mlp.0.weight f4 [32, 32]
00000000: cebc e740 eab8 b840 9c71 863f 31db 893d
00000010: f2e7 02bf b7ca f7bd df30 193e 1efd b740
00000020: 8b07 cc40 9d65 dac0 8510 8b40 1759 0bc0
00000030: 8c8b 4e3f 2e08 be3d 1d9e 48bd 9267 8e40
00000040: 09de 9340 003e 8fbc 1b35 ce3f 280a a540
00000050: e4c1 9940 c060 40bc b3d9 933f c3ed 1740
00000060: 7433 7cbe 3fbc 0340 3095 9b3d b3b8 793f
00000070: 06da 13be 095f bc3d b88b f240 a285 59c0
00000080: 1ff0 513e 755f d53e d83b b7be b67c 8dbe
00000090: e62c 003f da5f debe 75cf 033e 39cb 25be
000000a0: 752a a33e 130e 9a3d f107 8dbe 1c15 123d
000000b0: 5055 c7be 0331 41be 3ad0 21be e630 943e
000000c0: 9b73 01bf 1072 813d 2dfe 5dbe 7df1 883e
000000d0: 7a7b 573e 88a0 fdbd 3331 8ebe 86f4 85be
000000e0: 7b85 65be f131 e5be e3bd bc3d abbb 88be
000000f0: 9a7c 273e a08f 25bc f56b 50be fda5 e4bd
00000100: 7657 01c1 76a5 cbc0 e337 2b40 71d1 9dbd
00000110: 52ac 89bd eeb4 3d3e 1ace 1b3e 948d 0cc0
00000120: ec1f 73c0 83d3 4d40 e8d7 0a3f a99b 8e40
00000130: 224f 3440 52cd 9dbd 356a 0bbe 5fc5 08c1
00000140: 6c32 b6be ed57 f3bd 79a0 1340 5694 0dc1
00000150: f3bc 01c1 8641 f7bd 491e 3440 56f2 f83f
00000160: aa56 c53d 3612 f33f 6270 b13c b808 3d40
00000170: b43f 46bd d027 e0bd d62a 86c0 e4e2 a140
00000180: 2fa0 ccc0 74bd 93c0 5f3b 5740 54a3 6cbe
00000190: 7036 22be bdba b1bd d024 4abd 70a9 ae3e
000001a0: 10ef e7bf 3d80 5f40 2f28 c23f dd81 9540
000001b0: 8a97 6540 f8b8 bd3d e2be 163d 5264 b4c0
000001c0: 97ac a23f 03e1 203d 8c03 3e40 a461 c5c0
000001d0: 8d99 b4c0 b3c1 233e ca43 4c40 26ff 1b40
000001e0: 897b f3bd b594 2840 9360 05be 1418 6640
000001f0: e47e 1abd dac4 333e beec ebbf dd5b 5440
00000200: ce71 ec40 a44a b740 396c c83f 1610 3b3d
00000210: 65f8 f9be 7ee0 243c a1fd 1c3d 556b c140
00000220: 805c d940 75f8 dfc0 999e 8f40 8227 0ac0
00000230: 15a5 893f 0574 0d3c 5481 cb3d e040 8440
00000240: edd3 9740 d918 233e 51d1 f63f b51a a640
00000250: 0d7c 9040 084f 22be 774c 9f3f f797 3a40
00000260: 0a6f 60bd 2cb4 1640 2ed7 0f3e ef96 4e3f
00000270: 6411 013e 5bc3 75bd f2c4 ed40 ee3e 65c0
00000280: fb85 f740 65b0 ae40 f560 b83f 42a5 073f
00000290: 57fd 58be 72ba d53e 6663 12bd 5e3c c440
000002a0: 7e6b c940 3a3e d7c0 0e4d 9640 833b 0ec0
000002b0: b1ef 8c3f d414 0e3f f035 0f3e 3f30 9240
000002c0: 6523 ac40 e23d cdbd 97ba df3f a73c a440
000002d0: 6160 9a40 363e 8d3d 6088 293f 681d 2840
000002e0: ade0 cc3e 620d 1c40 23ce a8bd e32b 4a3f
000002f0: 692f 11be 3135 ac3d bed2 f240 ff00 4bc0
00000300: d2e6 5c3e f980 cd3e d502 61be a182 64be
00000310: 3fba ed3e 43f1 e8be 5658 2fbe 41c6 5bbe
00000320: 7508 9f3e f958 57bd 9fcc e5be 000d 153e
00000330: d365 93be 78bf 44be 2375 39bd e391 a03d
00000340: 547f 01bf 15c9 b3bd cb5f cfbe a070 b53e
00000350: 3da2 a63e 609e c9bd 6628 67be fda9 9fbd
00000360: 4564 42be b00e dbbe e00e 113e 3181 c1be
00000370: 9f8d 67bd 3274 9a3d 6f77 efbc 583e 1cbe
00000380: ba00 19c1 4724 d8c0 4039 7e40 0c88 39be
00000390: 5641 e8be ab4c b4be 196b 19bc f1b7 edbf
000003a0: 140b 60c0 e253 a440 fbbe 833f ac30 b640
000003b0: 236d 8340 c378 df3d 0a4a 323d 1ad1 22c1
000003c0: cf4c 313e 1a9c 0f3e 9e56 6040 b06f 25c1
000003d0: 7a12 19c1 b53f f1bd f629 8040 9b5d 3b40
000003e0: c805 86be cc35 4940 beb2 19be 6e8d 8240
000003f0: 8e4c 2fbd f407 22be 0b59 74c0 054e d240
7.2417974 5.7725725 1.0503421 0.067312606 -0.5113517 -0.12099212 0.14960049 5.749648
6.375921 -6.824904 4.3457665 -2.1773126 0.8068168 0.09278904 -0.048978914 4.450143
4.620854 -0.017485619 1.6109957 5.15749 4.8049183 -0.011741817 1.1550812 2.3738868
-0.24629003 2.0583646 0.07596815 0.97547454 -0.14438638 0.09197814 7.5795555 -3.3987813
0.20501755 0.4167439 -0.35787845 -0.2763421 0.5006851 -0.43432504 0.12872107 -0.16190805
0.3186833 0.07522216 -0.2754512 0.035664663 -0.38932276 -0.18866353 -0.15802088 0.28943557
-0.50567025 0.06320584 -0.21678992 0.2674674 0.21043196 -0.123841345 -0.2777191 -0.2616312
-0.224142 -0.44764665 0.092159055 -0.2670568 0.16356125 -0.010105044 -0.20353682 -0.11164472
-8.083853 -6.363948 2.675286 -0.077059634 -0.067223206 0.1852605 0.1521534 -2.1961412
-3.7988234 3.2160347 0.54235697 4.4565015 2.81733 -0.07705177 -0.13614734 -8.548186
-0.35585344 -0.11882005 2.3066695 -8.848715 -8.10863 -0.120730445 2.8143485 1.9448955
0.096356705 1.8989933 0.021660034 2.9536572 -0.048400596 -0.10945094 -4.192729 5.0589466
-6.3945537 -4.6168766 3.3629987 -0.2310918 -0.15841079 -0.086781956 -0.049351513 0.34113646
-1.8119831 3.492202 1.5168513 4.6721025 3.5873742 0.092637956 0.036803134 -5.637246
1.270892 0.039277088 2.9689665 -6.168169 -5.643744 0.15991859 3.1916375 2.437448
-0.11888797 2.6340764 -0.13025121 3.5952196 -0.03771867 0.17555562 -1.8431623 3.318107
7.388892 5.7278614 1.5658027 0.045669638 -0.48822322 0.010063289 0.038327817 6.044352
6.7925415 -6.999079 4.48811 -2.1586614 1.0753504 0.008633618 0.09936777 4.1329193
4.74462 0.15927447 1.9282628 5.19076 4.515143 -0.1585046 1.244521 2.9155252
-0.054793395 2.3547468 0.14046928 0.80699056 0.1260429 -0.06000076 7.430291 -3.581966
7.735105 5.4590325 1.4404589 0.5298654 -0.21190391 0.4174381 -0.035739325 6.132369
6.2943716 -6.726346 4.696906 -2.2223823 1.1010648 0.5550053 0.1398542 4.5683894
5.3793206 -0.10021569 1.7478818 5.132404 4.824265 0.068966314 0.66223717 2.6267948
0.40015164 2.4383168 -0.082424425 0.78973216 -0.14178242 0.08408583 7.5882254 -3.1719358
0.21572426 0.4013746 -0.21973737 -0.22315456 0.46431157 -0.45496568 -0.17123541 -0.21462347
0.3106114 -0.052575085 -0.44882676 0.1455574 -0.28788623 -0.19213665 -0.045277726 0.07840326
-0.5058491 -0.08778588 -0.40502772 0.3543749 0.32545653 -0.09844661 -0.22574005 -0.077960946
-0.18983562 -0.42784643 0.1416583 -0.37793878 -0.056531545 0.07541694 -0.029231755 -0.15258157
-9.562677 -6.7544284 3.9722443 -0.18118304 -0.45362347 -0.35214743 -0.009363913 -1.857176
-3.5006762 5.1352396 1.0292658 5.6934414 4.1070724 0.10911705 0.04352764 -10.17605
0.17314456 0.14024392 3.5052867 -10.339767 -9.567011 -0.11779729 4.005122 2.9275882
-0.26176286 3.1439085 -0.15009591 4.0797644 -0.042797618 -0.15823346 -3.8179348 6.572024

mlp.0.bias f4 [32]
00000000: e0fa 493f 2142 a3bd 46df 8dbf 12f3 c63e
00000010: 52cb 533f 71dc 3c3f 4084 fdbd d37f e93d
00000020: a464 0a3f 2ef9 88be 6f2e 2f3f 9b7a 543d
00000030: 58c8 02bf 3750 d13b 543e 5b3f c0de 473f
00000040: e2ec 263f 18e1 303f 3994 153f 2767 483f
00000050: bf48 9d3d f5d8 16bc 2b1f 743f 215a 9dbe
00000060: 91dd 813f 008a 773e 7cd4 153f 645d 33be
00000070: b93b 8b3e 8259 113f 4bbd d3bd ad07 0a3d
0.7889843 -0.079715975 -1.1083763 0.38857323 0.8273212 0.73773867 -0.1237874 0.11401334
0.54059815 -0.2675261 0.6843023 0.05187474 -0.5108695 0.006387736 0.8564198 0.78074265
0.65205204 0.69093466 0.58429295 0.782824 0.07679891 -0.009207 0.9536006 -0.30732825
1.0145742 0.24173737 0.5852735 -0.17516094 0.27194002 0.56777203 -0.10338839 0.033698726

mlp.2.weight f4 [1, 32]
00000000: ad5b fcc0 119b 4b3f 3225 5841 cf0a 2341
00000010: 38c2 f3c0 d6f6 efc0 9c27 543f 8fa4 5141
00000020: 33f6 2941 cf39 6641 de16 e5c0 8181 0d41
00000030: 6ab4 6341 e54f a93f 1bc6 2f41 d6a6 f3c0
00000040: 6027 5741 3182 ecc0 1bbd edc0 de81 edc0
00000050: e9a2 a13f 05a8 0cbe 0cfa 2141 574a 6641
00000060: 7724 1a41 26fa 1941 ac63 e9c0 5d8c da3e
00000070: 447c 3041 ff87 2e41 7c0b 31be 3de5 5e3e
-7.886191 0.7953349 13.509081 10.190139 -7.6174583 -7.4988813 0.8287294 13.102675
10.622607 14.389113 -7.1590414 8.844117 14.231546 1.3227507 10.985866 -7.6141157
13.447113 -7.3908925 -7.429334 -7.422103 1.2627841 -0.1373597 10.123547 14.393149
9.633903 9.623571 -7.293417 0.42685214 11.030338 10.908202 -0.17289537 0.21767135

gcn1.bias f4 [32]
00000000: 12c4 bf3d 2131 32bf 0000 0000 0275 123d
00000010: 0ba4 a93d 6d90 be3c d522 a1bd c535 63bf
00000020: 87e5 ca3d 9641 87be bd2e 1c3c 6b58 98be
00000030: 0000 0000 8ebf e0bd f86a 84bd dcc8 ad3d
00000040: cb80 d73c cd81 9b3d bc4b a63d bf7e 833d
00000050: 0e17 bbbe 0000 0000 51bf 54bd 0000 0000
00000060: b466 b13c 6e8c 51bd 1b84 b93c 0000 0000
00000070: 9bca 6abd 6962 8bbe dc33 e23c e7c2 893d
0.09363569 -0.69606215 0.0 0.03575612 0.08283242 0.023262227 -0.07867972 -0.8875392
0.0990706 -0.26417226 0.009532628 -0.29754958 0.0 -0.10974036 -0.06465715 0.084855765
0.02630653 0.07593117 0.08119914 0.06420659 -0.36541027 0.0 -0.051940266 0.0
0.021655418 -0.051159315 0.022646 0.0 -0.057322126 -0.27223518 0.02761262 0.06726628

gcn1.lin.weight f4 [32, 6]
00000000: 1523 e4be 9af0 1ebf 15df 4cbf bb70 30be
00000010: b6e1 d53e f580 193f 92d7 6c3a 2d4a 813f
00000020: 71c1 193f 8089 c0bf b1ba 7640 19aa 6c40
00000030: bf37 65bd 89a0 5cbe ba93 bbbd 9afd d03c
00000040: 47f6 c2be e1bb 2b3e ba50 66be f4b2 36be
00000050: 1348 cebe eaba acbe 5d3f 5b3e cfc0 303f
00000060: e242 00bf f205 72be f5b9 d4be fc6e 3cbe
00000070: 59ae 753f e3d9 833e 812c 55be 9fda 0d3e
00000080: 0d80 a1be b924 04be 6ce8 e7be a7ea 86be
00000090: ec10 c7be d8ec 69c0 d208 8ebd f824 80be
000000a0: 654d 8e3f aba4 2b3f 156c c5bd 4ef6 4e3f
000000b0: 643a 8b3f f0cc 84bf a867 1640 9178 4240
000000c0: e508 18bf aaef 8f3e 7a4b 893e 862c 92be
000000d0: b897 763b 87ba 85be a463 9a3e 6771 01c0
000000e0: bc27 70c0 7614 91bf a939 9140 4566 8e40
000000f0: 8ccd 6ebe db79 36be 2b9a 93be 8476 91be
00000100: 5b56 3c3f 25c3 c23e a5cf 90be 3a57 e9bd
00000110: eff4 47c0 8244 9ebf cdb7 1b40 56b5 3440
00000120: 73dd b7be 0c07 3ebe 6f74 bb3c bb97 7fbe
00000130: 75c4 69bd 2909 77be 05a9 993d 3fd3 f43d
00000140: abde 6dbe 3d46 a0bc fc05 84bd 26c9 d33c
00000150: c7f0 98be 070e 81be e6cc a6be 5918 d0be
00000160: 939b 3c3f 4bd8 323f c746 31bf 05ae 3bbf
00000170: f0f9 b1bf 0916 b83d 3481 003f 20ca dfbc
00000180: ae7c 04bf 69b6 09bf 87f0 2ebf 4387 0abd
00000190: b3aa 6f3f c8fe 813e 5333 dabe b6ce 47be
000001a0: 016c 03bf 221a 33be 7fb1 833e f89a 483f
000001b0: 815b a2be 11f7 21bf 21c9 2cbe 3258 e5ba
000001c0: d077 8cbd 7544 053e 70fb 2fbf 5aad 9bbe
000001d0: fc41 11bf 669f cabc eeaa 0d3f 9c91 713f
000001e0: 55e4 87bd 26fa 47bf 9a72 9cbf 5a65 d53f
000001f0: e008 b2bf 1e2e 6cbf c3d8 b7be 75b7 5abe
00000200: 2264 c7be 148b c33d 5953 42bd 6b89 bebd
00000210: dccf 1ebf 7834 a4be 4aea 88be 148a 66bf
00000220: f29e ef3f 5fa3 0240 0624 4fbe 4ab3 71be
00000230: b625 81be 6dc7 a9bd 87e5 90bb 3c67 60be
00000240: b907 d7bd 1f7b 15bf 4a62 8cbe 9813 53bd
00000250: 6999 283e e1be dd3c 676a 0dbe eff8 c0be
00000260: c69a 193e 7c5d bd3c 930f 8cbe c76e 583e
00000270: 1954 40be 317d 51bf eb90 40bf dd76 b3bf
00000280: 81b6 123f ebff a7bc edc0 6fbe 3e13 b1bd
00000290: 1710 493d 2601 0d3d 034d a8be 5548 763e
000002a0: 6c1c c3be 631d 5abe 3c98 58be f935 0dbf
000002b0: dd34 8b3f 0583 ae3f 4949 cd3e e9ea f6bf
000002c0: 98f6 49bf 8a9b 093f ba28 0cc0 f35d 16c0
000002d0: b9ab 2abf aec9 6abc 5414 d8be 7c38 2c3d
000002e0: 9c2f 173f 1075 053f b962 eabe 4307 16bf
000002f0: dca2 bbbe 6325 3ebe 3b49 cf3e 724c 623f
-0.44558015 -0.6208588 -0.80027896 -0.17230503 0.41773766 0.599624 0.0009034808 1.0100762
0.60060793 -1.5041962 3.8551447 3.697882 -0.055961367 -0.21545614 -0.09159036 0.025511552
-0.3807852 0.16770889 -0.22491732 -0.17841703 -0.40289363 -0.33736354 0.2141089 0.690442
-0.50102055 -0.2363508 -0.41548124 -0.18401712 0.9596916 0.25752172 -0.20817758 0.13852929
-0.31543007 -0.12904634 -0.4529451 -0.263509 -0.38880098 -3.6550808 -0.06935276 -0.25028205
1.1117369 0.6704814 -0.09639756 0.8084458 1.0877194 -1.0375042 2.3500767 3.0386088
-0.5938857 0.28112537 0.26815397 -0.28549594 0.0037627053 -0.26118872 0.30154145 -2.0225465
-3.7524252 -1.1334369 4.5382886 4.449984 -0.23320597 -0.17819922 -0.28828558 -0.28410733
0.7356927 0.38039508 -0.2828342 -0.1139359 -3.1243246 -1.2364657 2.4330933 2.8235679
-0.3591114 -0.18557376 0.022882668 -0.24960224 -0.05707212 -0.24124588 0.07502941 0.119543545
-0.23229472 -0.019564742 -0.06446454 0.025852751 -0.298712 -0.25206015 -0.325782 -0.40643576
0.7367489 0.69861287 -0.6924862 -0.7331241 -1.39044 0.08988578 0.5019715 -0.02731806
-0.51752746 -0.5379396 -0.68335766 -0.033820402 0.9361984 0.25389695 -0.42617282 -0.19512448
-0.51336676 -0.17490438 0.25721356 0.78361464 -0.31710437 -0.6326762 -0.168736 -0.0017497598
-0.0685879 0.13014396 -0.6874304 -0.30405694 -0.5674131 -0.02473421 0.55338943 0.9436281
-0.06635348 -0.7811607 -1.2222474 1.6671555 -1.3908958 -0.9225787 -0.35907564 -0.21359046
-0.38943583 0.095480114 -0.047442768 -0.09303554 -0.6203592 -0.3207128 -0.26741248 -0.9005444
1.8720381 2.0412214 -0.20228586 -0.2360355 -0.25224084 -0.082899906 -0.004421893 -0.21914381
-0.1049952 -0.5839099 -0.2741874 -0.051532358 0.16464771 0.027068557 -0.1381012 -0.3768992
0.15000448 0.023115866 -0.27355632 0.21136008 -0.1878208 -0.8183165 -0.7522113 -1.4020649
0.5730973 -0.020507773 -0.23413439 -0.08646248 0.04908761 0.034424923 -0.32871255 0.2405103
-0.38107622 -0.21300273 -0.21151823 -0.5516048 1.0875508 1.3633734 0.40094975 -1.9290439
-0.788919 0.5375296 -2.1899858 -2.3494842 -0.6666828 -0.014330311 -0.4220301 0.042046055
0.5905702 0.5213175 -0.45778444 -0.5860483 -0.3664769 -0.1856895 0.40485558 0.88397896

gcn2.bias f4 [32]
00000000: d757 293f dfca 253f aa50 dd3e 1e90 dabd
00000010: 5293 a9bd 6e5c 73be 19fd 4bbd 4e49 9ebd
00000020: d8b5 53be cb3a 01be e6a5 d5bd eb08 a43e
00000030: f584 6ebe 26f9 8ebd 74c0 24be 9e32 36bd
00000040: ef9d dcbd 9745 073f 084d 20be 1511 6abe
00000050: f240 8a3e 9112 02bd dbc5 48be 84f3 d9bd
00000060: ab5f 2fbe cafe 00be 6636 b7bd 31d4 b0bd
00000070: 1e3c cfbe 1235 cebd ffbb 27bf 4229 00be
0.6614966 0.6476268 0.43225604 -0.106720194 -0.08280052 -0.23765728 -0.04980192 -0.077288255
-0.20674837 -0.12620084 -0.10432033 0.32038054 -0.23292907 -0.06981115 -0.1608904 -0.044481866
-0.10772311 0.5284056 -0.15654385 -0.22858079 0.27002674 -0.031755988 -0.19606726 -0.1064215
-0.17126338 -0.12597194 -0.089459226 -0.08634222 -0.40475553 -0.10068716 -0.65521234 -0.12515739

gcn2.lin.weight f4 [32, 32]
00000000: f252 d1bd 3e36 1040 85ae 023c d945 82ba
00000010: 264e febd c644 19be b0d1 0dbc e677 0640
00000020: acba 0e3e 700d 56bd 8912 163e 520d 613f
00000030: 4847 a73c 877f 993e 3b4c 503e 2a8e bc3e
00000040: 3c2e 1b3e 0bb3 f7bd 7d4e 07be f77c 723e
00000050: b2d6 633e bc36 9a3d 69b1 6cbf 1440 c1bd
00000060: fd19 22bd b268 f03d ba34 d83e 72a7 47be
00000070: 2215 2d3e db10 09be 9615 9d3e dd61 d4bd
00000080: 6045 8a3e 7988 2040 f6f3 87bd 3cf1 1abe
00000090: 8797 553e ed55 a33c 663c 0239 3b77 0f40
000000a0: 1c86 3d3e f742 f9bd 0ef7 b4bd ec01 553f
000000b0: ff4d 86bd 5f3f 933e 482b 773e 20dc 6b3e
000000c0: f223 3fbe 78bd 17bd cf5c 7bbd d4c2 723e
000000d0: a2e4 693e 5034 99bb 40c4 89bf 2a52 91be
000000e0: 9554 a7ba 68ce 3c3e d49c 2c3f 4f6b 2e3e
000000f0: d77b 8ebd 2909 0d3e 1490 a0be 2429 8ebe
00000100: 7405 a6be 0168 1c40 e6ce f7bd 01a8 403e
00000110: 4d05 753d 4c5c 143d 76c0 a83d 1fd9 1c40
00000120: afa8 e03d e154 60be e0c7 753e 7aea 803f
00000130: be54 35bc 3d27 0cbe 2561 7b3e a735 d43d
00000140: 023d 873e 25f2 75be d9e7 8fbe 29cc 243e
00000150: 1a5c 333e 9c34 33be 4a87 67bf 5311 203e
00000160: d0a3 4cbd 7318 38be 9477 eb3e a657 613e
00000170: 31bb 82be 95a5 37be 8c14 b23d 4424 433d
00000180: ec55 bdbe 67ad a3be 10e8 2ebd 73ec 0439
00000190: 038a 95be d0dd 68be fc68 fcbd d8cf 3dbe
000001a0: b0c1 263d 0a72 55be b513 3cbb 6efe 59be
000001b0: 77c8 3ebe b6ce 453e e69c 64be dbba 0c3d
000001c0: 633d a3be 5c0a 7b3d d469 c13d 0850 483e
000001d0: 1474 de3d 9d25 9bbe be36 1b3d 07d0 4ebe
000001e0: 1aa3 963e 06c1 5a3c b37f 693e 1106 94be
000001f0: ce17 c63d 5461 08be e2c2 c4bc 3792 073e
00000200: 82bc 13be b1bb 9b3d 02ab af3d d0f3 4ebe
00000210: 8448 00bd a177 d6bc b1a1 663e c373 113e
00000220: a53f 933e 141d 113e fa41 afbe 41dc 91be
00000230: a3dc 853e c229 df3c eb0b 98be 69ff 1b3c
00000240: b43d 7dbe a15d 24be 8e55 69be b237 833b
00000250: ab12 6fbe d820 a0bd ad11 7cbe b0cb 403c
00000260: a46a 14be 74ba b33d f50b 3abe e382 4b3e
00000270: 0eb7 623d 6e33 133d f238 ba3d 3c8e de3c
00000280: 9f04 5b3e 69a9 d53f 1c47 403e c6f3 b4bd
00000290: f7dd 07be 00fb 4abe 00f0 87bc 0820 1640
000002a0: ca85 28bb e509 08bf 5575 41be eedf ac3f
000002b0: 2e84 37be 6d85 ccbd e6ab bfbd 4272 9d3e
000002c0: 2970 50bc de21 043e d790 513e 4cab b03c
000002d0: bd3e c33e 77f3 29be 219a 82bf 5844 57be
000002e0: c6c9 993c 9bf0 4e3e b74f 383e 832e 75be
000002f0: 5ec8 ffbd 2144 3a3e 1676 d5bd 52f3 a9be
00000300: 4ab2 a6be 970b 9abe 106e ebbd ae5b ccbe
00000310: d61c fabd 3d2c 493e 3fdd 99be 735b d33c
00000320: 508e 4d3d 295c 12be 9adf 6abe f12f aebb
00000330: 3ff0 7cbe 8331 4fbe a9e4 8cbd ee25 623e
00000340: cc59 793e c228 73be 379c c6bc c799 8cbe
00000350: 7913 4f3d b67c 6cbe 4476 2e3d 8096 893e
00000360: c155 83be d431 983e dcee 1ebe 7a39 59be
00000370: 190d c73d d0c0 07bd 051f 1a3e 53dc 683e
00000380: 239a ee3c a37e aabe 014a 8abe d999 8dbe
00000390: 48fe 8abd 9358 033d cc1c 423e 7059 943c
000003a0: 8e6b 59be 4029 5cbe 11e0 4b3e 8def 2a3d
000003b0: ac14 36be 0a33 f6bd fa6e 94bd 9d81 cf3d
000003c0: 62f3 553e 9fd3 aabe 6039 553c 2d9a 3a3e
000003d0: be10 7bbe 9bb0 893e ec19 793d b6a9 88be
000003e0: 657b ed3d 74aa 853e 8303 9abe fdaf f1bd
000003f0: afaf 943d f91e a83d fd8f 82be 1c1e 93be
-0.10220899 2.2533107 0.007976179 -0.0009939029 -0.124172494 -0.14967641 -0.00865595 2.101068
0.13938397 -0.05225891 0.14655508 0.8791095 0.020419732 0.29980108 0.2034158 0.36827213
0.15154356 -0.120946966 -0.13213535 0.23680483 0.22249869 0.07529971 -0.92458206 -0.0943605
-0.039575566 0.11738719 0.42227727 -0.19497469 0.16902593 -0.13385336 0.3068053 -0.103702284
0.27006054 2.5083296 -0.06638329 -0.15131086 0.20858584 0.019938434 0.00012420266 2.2416523
0.1850819 -0.12170976 -0.088361844 0.8320606 -0.06557845 0.28759286 0.24137604 0.2303319
-0.18666056 -0.037045926 -0.061367806 0.23707134 0.22841123 -0.0046754256 -1.0763016 -0.28383
-0.0012766296 0.18438113 0.674268 0.17033122 -0.06957214 0.13773026 -0.31359923 -0.27765763
-0.32426035 2.443848 -0.121000096 0.18814088 0.05981951 0.036220834 0.08239834 2.450752
0.10969674 -0.21907379 0.24002028 1.0071557 -0.011067567 -0.13686843 0.24548776 0.10361796
0.26413733 -0.24018152 -0.28106573 0.16093506 0.17515603 -0.17500538 -0.9044081 0.15631609
-0.04996091 -0.17978077 0.45989668 0.22006091 -0.2553344 -0.17934258 0.08695325 0.047642007
-0.36979616 -0.31968233 -0.04270178 0.00012676585 -0.29206857 -0.22740865 -0.12324712 -0.18536317
0.04071206 -0.20844284 -0.002869827 -0.21288463 -0.18631159 0.19317135 -0.22325477 0.034357887
-0.31882772 0.061289176 0.09444013 0.1956178 0.10861984 -0.30302134 0.037894003 -0.20196544
0.29421312 0.013351684 0.2280262 -0.28910878 0.09672509 -0.13318378 -0.024018709 0.1323937
-0.14427379 0.07604159 0.08577539 -0.20210195 -0.031319156 -0.02618009 0.22522618 0.14204316
0.28759494 0.14171249 -0.34230024 -0.28488353 0.26144895 0.027241591 -0.29696593 0.009521344
-0.24730569 -0.16051342 -0.22786543 0.004004442 -0.23346965 -0.078187644 -0.24616118 0.011767313
-0.14493805 0.087757975 -0.18168624 0.19874148 0.055350356 0.03593772 0.09092893 0.027167432
0.21388482 1.6692325 0.18777126 -0.088355586 -0.13268267 -0.19822311 -0.016593933 2.345705
-0.002571451 -0.531401 -0.18892415 1.3505838 -0.17921516 -0.099863864 -0.09358959 0.30751234
-0.012722054 0.12903544 0.20465408 0.021566056 0.38133803 -0.1659678 -1.0203286 -0.21022165
0.01877297 0.20208971 0.17999159 -0.23943524 -0.12489389 0.18190052 -0.10422914 -0.3319345
-0.325579 -0.30086967 -0.11495602 -0.39913696 -0.12212531 0.19645782 -0.3005161 0.025800442
0.050184548 -0.14292969 -0.2293686 -0.0053157737 -0.24701022 -0.20233731 -0.06879551 0.22084782
0.24350661 -0.23746017 -0.02424441 -0.27461073 0.05055568 -0.23094448 0.042593256 0.26872635
-0.25651363 0.29725516 -0.15520805 -0.21213332 0.09719295 -0.033142865 0.15050896 0.22740297
0.029126232 -0.3329974 -0.27009585 -0.2765644 -0.067867815 0.032066893 0.18956298 0.018109053
-0.21232435 -0.2150011 0.19909693 0.04173236 -0.17781323 -0.12021454 -0.072477296 0.10132144
0.20893624 -0.3336458 0.013014168 0.18222876 -0.24518105 0.26892552 0.060815737 -0.2669198
0.11595801 0.26106608 -0.30080804 -0.11801145 0.072600715 0.082090326 -0.2550048 -0.2873391

fc.0.weight f4 [32, 48]
00000000: 83d1 c4be d56c 17bf e20b 01bf ba29 d4bd
00000010: 2ac3 db3d 010f 40bf d3f7 39be 7e46 123e
00000020: 420a 1ebf 4e00 d23d 2066 cebd aadf 2dbf
00000030: 7c6f 28bf b5fc 203e e1d3 1dbd b88b 103e
00000040: b64c 90bd ba37 cebe 3099 b13d b650 0ebf
00000050: ae5c 0fbf fbcc 88bd 4ef6 1cbf e2bd b4bc
00000060: 040b 6dbd aea8 acbd 6001 85bd 3aab c13d
00000070: 5cfd 8abf c353 633c 5026 b0c0 9afb 62bc
00000080: be7d a3bf fbf7 013f ed48 d13e 047a c7bc
00000090: 8228 1dbd 7f6d c5bc d021 ce3c ce81 96bd
000000a0: 0cc2 7fbd 1465 893d 8793 913b 6aca 303c
000000b0: ba99 ed3c fa05 f63d 7b5a d7bd c5ab a33d
000000c0: 7473 42bd 1393 b2bd 25e0 8cbd 833b e0bd
000000d0: 93d0 88bd 7345 17be 8afa 1d3d 9ea1 e2bd
000000e0: 12c2 ffbd 9d30 8d3c c1f6 ef3c 5739 603d
000000f0: b174 823d 5f7f b6bd da9e 123e 4bdd 97bd
00000100: 2236 e5bd 5427 fbbd 1625 d83d 0f4b bfbc
00000110: 9ddb d63d 2355 f8bd 4557 c9bd 1e3f af3d
00000120: 50fd 7bbd 1171 aebd 2a13 b2ba 6eac 013d
00000130: 907c ca3d 6095 9bbd 1cea 29bd eb04 ff3d
00000140: 7244 0d3d eed6 7f3c 0daf e3bd e497 8f3b
00000150: 905c b9bb d829 1e3d 28c0 d43c fdf7 a23d
00000160: 3ba5 e2bd 436f cf3d 76a8 fc3d b6ce 68ba
00000170: d7bb cf3c 2f10 7ebd c5d0 de3d 2198 ee3d
00000180: 80ff c0be 8afc e0be b5db 07bf 43de 023e
00000190: b6f2 e43d a6f7 27bf 7308 093d 9c33 203d
000001a0: 0c59 01bf 0f4d d63d 6321 8a3c a876 01bf
000001b0: f5fd d0be 5bf5 0e3d b878 5abd caea edbd
000001c0: 18bb e23d bf70 d7be 1151 f4bc 3116 d4be
000001d0: 2f6a 29bf 2a50 a5bc 9fb2 0cbf 9842 e63c
000001e0: 54ac 62bc a4b7 02be 3723 e0bd 28ad a6bd
000001f0: 6c0f c8bf e840 aabd 0a07 efbe 1d42 013e
00000200: 6eb8 97bd 81fb 653e 1dca 023f 9024 bfbc
00000210: 5693 013e bfe3 7e3d f8b3 93bd 895f 34bc
00000220: 4f94 cbbd 3159 bfbd cc00 b3bc f9ef c13d
00000230: 83af 2f3d 3613 46bd 312e e73c d133 03be
00000240: c2d2 cd3e 62c2 e43e 0fac ce3e 9ec1 d4bd
00000250: 089b 85bd 644f 5c3e 5a8f 223d 0dfc fbbd
00000260: ebe9 6dbd a50e 193c c749 863d 7afa 863b
00000270: cf77 66bd 9826 bebd 550a 3b3d bca8 b33b
00000280: f013 a93d 6467 b43e 04a2 03bc 4e22 21bc
00000290: 733d e83d 1d62 9e3d c5be 913c b445 433d
000002a0: 8a65 2d3c cf28 a6bd ced4 5b3c 6de6 313e
000002b0: ecfe 0ec0 c56a b1bc 568b 1240 60a6 4dbe
000002c0: 3b1e 8c3f 15a9 a03f 7b69 9c3f b4bc fb3d
000002d0: 766d 94bd 63cb b7bd 80e5 843d 6ba9 36bd
000002e0: 036d 323d 7864 26bc 1889 8abd dcad a1bd
000002f0: 29f5 05bd d84c 69bd 97a0 dc3c 917d 25bd
00000300: 8ec6 0ebc a280 6b3a 462e 20be 43a1 11be
00000310: 8e4b ffbd bfd2 8e3d 397a a9bd bfdb 013e
00000320: 345b 51bd 9d42 d03d cc2e c4bc f9ef a2bd
00000330: 4ba8 36bd 9b0d b63d 8d63 5abd 70ca f4bb
00000340: b5dd 753d 5c10 0cbd 52ad a0bc a45a 07be
00000350: e4dc 693c 3fc5 89bc 50f4 26bd 6391 1abe
00000360: 7d50 35bd af91 be3d aab0 863d e451 d1bd
00000370: c211 cdbd f787 b43d 1b05 853d aaf5 c6bc
00000380: 5ba4 00be 3d90 743d 1786 91bd cc57 b43d
00000390: 4125 0f3e cd9f 0f3e 8a40 323c a7b5 013e
000003a0: b90e a7bd e8b1 d6bd fbfc 813d 6527 f1bd
000003b0: 656d d1bc c7ac fa3d 52e5 b5bc f899 d23d
000003c0: fba0 fdbd 6c61 813d 75cc e53d e89d bf3d
000003d0: e0fb 11be 3648 6abd 0c2c 853d dcf6 52bc
000003e0: d5d1 c0bd a9b5 0dbd cb4c 123e df6f 26bd
000003f0: 78ac b83b eb00 10be 9190 d0bd 56e5 33bd
-0.38441095 -0.5915044 -0.50408757 -0.10359521 0.10730584 -0.75022894 -0.18160944 0.14284703
-0.617344 0.10253964 -0.100780725 -0.6791941 -0.6579511 0.157214 -0.03853214 0.14115798
-0.070458815 -0.4027689 0.08671796 -0.55591905 -0.5600079 -0.06679722 -0.6131333 -0.0220632
-0.057871833 -0.084306106 -0.06494403 0.09456487 -1.0858569 0.013874951 -5.504677 -0.013853932
-1.2772748 0.50769013 0.4087595 -0.024350174 -0.03836871 -0.024100063 0.025162607 -0.07348977
-0.062440917 0.06708732 0.0044426355 0.010790447 0.029003967 0.12012859 -0.10515305 0.07991747
-0.047473386 -0.087194584 -0.0687869 -0.10948851 -0.066804074 -0.14772587 0.03856901 -0.11065982
-0.12488188 0.017235095 0.029292466 0.054742184 0.06369913 -0.08911013 0.1431841 -0.07415255
-0.11191966 -0.122633606 0.105539486 -0.02335122 0.10491107 -0.121256135 -0.098310985 0.085569605
-0.061520875 -0.085176595 -0.0013586034 0.031658582 0.0988704 -0.075968504 -0.04148303 0.1245211
0.034489103 0.015615208 -0.11117373 0.0043821204 -0.0056567863 0.038614124 0.025970533 0.07957456
-0.110666715 0.10128643 0.12336819 -0.00088809 0.025358124 -0.062027153 0.108796634 0.1165011
-0.3769493 -0.43942672 -0.5306962 0.12780099 0.11179106 -0.65612257 0.033455323 0.03911172
-0.505265 0.104639165 0.016861623 -0.5057168 -0.40818754 0.034901958 -0.053337783 -0.11617048
0.110708416 -0.42078206 -0.029823812 -0.4142318 -0.6617765 -0.020179827 -0.54960054 0.028107926
-0.013835032 -0.12765366 -0.10944217 -0.08138496 -1.5629706 -0.08313161 -0.46685058 0.12622876
-0.07408224 0.22459222 0.5108965 -0.023332864 0.1265386 0.062228914 -0.07212061 -0.0110091055
-0.09940397 -0.09343184 -0.021850966 0.09469599 0.04289199 -0.048358165 0.028220268 -0.12812735
0.40199858 0.44679552 0.40365645 -0.10388492 -0.065237105 0.2151466 0.039687492 -0.12303934
-0.05808441 0.00934187 0.06557041 0.0041192146 -0.056266602 -0.09284705 0.04566415 0.005482761
0.08255756 0.3523513 -0.008034233 -0.009834839 0.113398455 0.077335574 0.017791161 0.047673896
0.010583291 -0.08113252 0.013417436 0.17373057 -2.2343092 -0.021657357 2.2897544 -0.20082998
1.0946726 1.25516 1.221969 0.12291852 -0.072474405 -0.0897434 0.06489086 -0.044595163
0.043560993 -0.01015579 -0.0676443 -0.07894489 -0.032704506 -0.05695805 0.026932044 -0.040402953
-0.008714331 0.00089837064 -0.15642652 -0.14221673 -0.12465583 0.069737904 -0.08275265 0.12681483
-0.05111237 0.101689555 -0.023948096 -0.079559274 -0.04459409 0.08889314 -0.053317595 -0.0074704215
0.06002589 -0.03419529 -0.019613896 -0.1321817 0.014273856 -0.016817687 -0.04076034 -0.15094523
-0.044266213 0.09305131 0.06576665 -0.102206975 -0.10013153 0.08814996 0.064951144 -0.024287064
-0.12562697 0.05970787 -0.07105654 0.088058084 0.13979055 0.14025803 0.010879645 0.12666951
-0.08157105 -0.10483152 0.0634708 -0.11775092 -0.025564859 0.12239986 -0.022204075 0.102832735
-0.1238422 0.0631741 0.11220638 0.0935629 -0.14256239 -0.057197772 0.06502542 -0.012876239
-0.09415022 -0.034597073 0.14287107 -0.040634032 0.0056357943 -0.1406285 -0.10183824 -0.043919884

fc.0.bias f4 [32]
00000000: 3abe 673f f2e5 943b 50b5 4c3f 3808 1340
00000010: 3f33 84bd 6a3e 86bc c7a4 2640 81ac 1340
00000020: c3d2 1e40 fcde 823d 6677 3bbe c86a 07be
00000030: eb32 023d 3c59 87bc 4fa5 afbd 4201 bd3c
00000040: 791b 2840 776c 2cbd 040c 24be af4d 253f
00000050: 5478 2140 b35b 8ebd e4e7 1dbe 6119 72bd
00000060: 86de 9bbd d62d 623f b477 1bbe 678f 1a40
00000070: 09cc 263c b6ab 8bbd c347 c3bd d4f3 233f
0.9052464 0.004544013 0.7996416 2.2973766 -0.06455087 -0.016387183 2.6038072 2.3074038
2.4816139 0.06390187 -0.18307266 -0.13224328 0.03178684 -0.016522042 -0.08576452 0.023071889
2.6266768 -0.042095628 -0.16020209 0.6457166 2.5229692 -0.06951084 -0.1542049 -0.059106234
-0.07610802 0.8835119 -0.15182382 2.4150026 0.010180482 -0.06819861 -0.09535172 0.6404393

fc.2.weight f4 [1, 32]
00000000: 0d91 813c 4ad6 3f3d 1cf8 c7bc e8e9 4bbf
00000010: 87d0 d93d 9588 c4bd 667e 74bf cffe 44bf
00000020: 5611 56bf ceec c73c 6301 903d 224f 80bd
00000030: bc10 a93d 8a31 073e df10 4f3d ce5e 313c
00000040: 5fbd 88bf 76cc e8bd 36cd 3e3c fc16 403b
00000050: 76cd 6dbf bf49 3abc 17ee b1bd 0c64 813c
00000060: b28a 1a3e 7b8d 3a3c 4f1d 523d 960c 56bf
00000070: 4295 ee3d 0c31 c4bc b493 c13c 77f0 7abc
0.015816236 0.04683522 -0.0244103 -0.7965379 0.106354766 -0.095963635 -0.9550537 -0.7695131
-0.836202 0.02440491 0.070315145 -0.062650934 0.08255145 0.13202491 0.0505532 0.010825826
-1.0682791 -0.11367123 0.011645606 0.0029310575 -0.92891634 -0.0113701215 -0.0868799 0.015794776
0.1509197 0.011386271 0.051297482 -0.83612955 0.116495624 -0.023949169 0.02363 -0.01531612

gcn1.bias f4 [32]
00000000: 6250 f83d 0000 0000 346d c03e b56d 8b3e
00000010: 3d8a 203e 1c7f 743e 25fc a63e 2594 a6be
00000020: 0000 0000 13a2 6c3d 07b7 abbc f9ca 3e3e
00000030: 6328 7e3e 0000 0000 0000 0000 a914 6c3e
00000040: b989 453d b25a ae3e 20d2 f2bc dd46 173b
00000050: e69b 813c 9056 a83e 1b8f 643d d8ee 993e
00000060: 286c ba3e 59f6 8a3e 7ff8 323e 6fcc 053c
00000070: 2d5d 133e 0000 0000 0000 0000 1c9d 5e3e
0.12124707 0.0 0.37583315 0.27232137 0.15677734 0.23876613 0.32614246 -0.325349
0.0 0.057771754 -0.020961298 0.18632115 0.24820094 0.0 0.0 0.23054756
0.048227046 0.3405357 -0.029641211 0.002308301 0.015821408 0.32878542 0.05580054 0.30065036
0.36410642 0.27141073 0.17477606 0.008166417 0.14391012 0.0 0.0 0.2173962

gcn1.lin.weight f4 [32, 6]
00000000: b253 1f3e 255a 473e 84b5 8a3f cf84 53bd
00000010: aacb 5e40 ed36 af3e 6fd7 83be 42ef 483d
00000020: c9c8 7abe 07b8 43bd fef4 c8be 9bde a1bd
00000030: 5a2a 243e d8e1 debe 2b3f 65bf 1d18 813e
00000040: 965e 99bf 2b58 a63f 2613 9f3e 4fa4 4ebe
00000050: 2083 2abf 040a 823e 8c0c 89bf cc24 923f
00000060: 9a77 ae3c 1101 253f ce4e 873f ae9a ec3d
00000070: ba12 3440 2b91 1cbf 4373 fabd 6c96 a43e
00000080: a82f 543f 0b48 593e 7d75 5740 5afc d2bd
00000090: daa6 8ebc 86af b5be 63be 59bf fa33 f03e
000000a0: 7f26 a3bf cd8b c73f e2a7 3a39 b1fd 763f
000000b0: 4832 443f 7ccd 78be 11a7 6140 4443 14bf
000000c0: aaca a8be a358 763e 6672 6cbc 235b 83be
000000d0: 1d21 7a3e 96fd 55be 9f24 633e aedb ed3e
000000e0: 367c 853f 1fda 1c3d f99f 2940 d451 de3d
000000f0: 84f0 65bd b0b2 c9be b576 113e 1d2b 183c
00000100: 9551 86be 78f0 b6bc 5597 b33e a537 143e
00000110: 7577 6d3f 4bd6 97be d68b 6340 45ac 35bd
00000120: 2b2a aebd 0f82 23be ffb5 66bf 20f4 d33e
00000130: cb14 7bbf a8a1 ec3f 4a9c bcbe 0caa 923d
00000140: 63a1 963e b270 fbbd a527 6fbe 7b94 843c
00000150: 1809 acbe 8e35 76be 6626 903d 95b2 27be
00000160: 8aa9 84bc 7550 acbe b41e a33e e581 e4bd
00000170: e697 a0bf dd9a 683e 3f64 8c3d 72f8 3d3f
00000180: f980 ca3e edd1 2a3f 4c1d 9f3f 035b 863d
00000190: 120b 4940 c46a f23d d811 223e bed2 9cbe
000001a0: 824a 4fbf 243b f33e f611 d3bf 7bf1 893f
000001b0: e184 43be 24bb 62c0 b629 6a3e ef2a d8bc
000001c0: 14d4 3540 bd27 a340 2b55 973e 9dce 0d3f
000001d0: 38b5 fa3e a4d0 843e 28da 8740 7282 603f
000001e0: d445 be3e 2aee 2d3f a741 a13f 4655 8a3e
000001f0: ad12 2e40 9b1a 04bf 2cc6 e33e d294 343f
00000200: 161e 86be a09e 583e 41c6 b13f 7528 0640
00000210: 9ec2 383e 335d 44be f15d 423f 7a02 13be
00000220: f89d 6c40 c3b5 eb3e ff8c d63e be5d d2be
00000230: 3b9c 0fbf 2dc0 653e 3988 08c0 e7fb 623f
00000240: a896 203f 15ff 04bf c9c9 c0be 72d7 4fbe
00000250: 9af4 11c0 f351 6f3f 6d75 2f3e 5090 fcbe
00000260: 9e9a 82bf 9a45 813e f29a 293f eed7 a63f
00000270: e538 403d a205 b63e b4c8 4b3f 6a68 003e
00000280: 0a34 4940 3a8f f63e 4383 ce3e 7679 da3e
00000290: ca3c 943f 99b4 db3d df1d 3d40 df5d 0abe
000002a0: 4723 ca3d 668c 45bd 503d 26bf 54e7 0f3f
000002b0: b11d f9bf 6e60 623f dcb2 9abe f896 c6be
000002c0: 64de 9bbe 2634 c3be 68ef debd 7d53 ba3e
000002d0: cf8e 30be 1c34 71be 00a3 22be 3a83 453d
000002e0: 5bbc 3f3d 26b2 a33c 5a2d c93c 0aca 833f
000002f0: 8d24 05bf 081f d73e 6a75 58c0 08c7 aabf
0.15559271 0.19467981 1.0836644 -0.051640328 3.4811807 0.34221593 -0.257503 0.0490563
-0.24490656 -0.047782924 -0.39249414 -0.07903787 0.16031781 -0.4353168 -0.8954951 0.2521371
-1.198199 1.2995657 0.31069297 -0.20179866 -0.6660633 0.25398266 -1.0706954 1.141748
0.021297265 0.6445475 1.0570924 0.1155294 2.813643 -0.6115901 -0.12229016 0.32146013
0.8288522 0.21218888 3.366546 -0.103020385 -0.017413545 -0.35485476 -0.8505613 0.46914655
-1.2746123 1.5589539 0.00017800884 0.9648085 0.76639223 -0.24297136 3.525822 -0.5791514
-0.3296712 0.2405725 -0.014431572 -0.2565547 0.24426694 -0.20897517 0.22181939 0.46456665
1.0428531 0.038293954 2.650389 0.10855451 -0.056137577 -0.3939414 0.1420544 0.009287623
-0.26234117 -0.022331461 0.35076395 0.14474352 0.927604 -0.2965568 3.55541 -0.044353742
-0.08504137 -0.15967582 -0.90121454 0.4139719 -0.980786 1.8486834 -0.3683799 0.0716134
0.29420003 -0.12277354 -0.23354967 0.016184082 -0.33600688 -0.24043867 0.07038574 -0.16376717
-0.016194124 -0.33655134 0.31859362 -0.11157588 -1.2546356 0.22715326 0.06855058 0.7420722
0.39551523 0.6672657 1.2430816 0.06560328 3.1413007 0.1183677 0.1582712 -0.30629534
-0.80973065 0.47506058 -1.6489856 1.0776819 -0.19093658 -3.5426722 0.22867474 -0.02638766
2.8410692 5.098601 0.29557166 0.5539339 0.48966384 0.2594043 4.2453804 0.87699044
0.3716265 0.67941535 1.259816 0.27018183 2.7198899 -0.51603097 0.4448713 0.7053958
-0.2619483 0.2115426 1.3888627 2.0962193 0.1804299 -0.19176178 0.75924593 -0.14356413
3.6971416 0.4603711 0.41904446 -0.41087145 -0.56097764 0.2243659 -2.1333144 0.8866562
0.62729883 -0.51951724 -0.3765395 -0.2029703 -2.2805543 0.9348442 0.17134638 -0.49328852
-1.0203435 0.25248414 0.6625205 1.3034647 0.04692926 0.35551172 0.79603124 0.12539831
3.1438012 0.48156148 0.4033452 0.42670792 1.1581051 0.10727806 2.9549482 -0.13512371
0.0987001 -0.048229598 -0.64937305 0.56212354 -1.9462186 0.8842839 -0.30214584 -0.38787055
-0.30443108 -0.38125724 -0.10885507 0.36391822 -0.17241977 -0.23555034 -0.15882492 0.04822085
0.04681049 0.019982409 0.024557758 1.0296032 -0.520089 0.42015862 -3.3821664 -1.334199

gcn2.bias f4 [32]
00000000: 600f 9b3f 24c4 443f 97fe a3bd 910a cbbc
00000010: d63e 1fbe 2f80 a1bd 0000 0000 df7c df3e
00000020: 46a5 2a3f 6269 7bbc eadb fe3e a2eb cabe
00000030: 4afc 10be 3e9d 2b3d 0000 0000 f3bd 923f
00000040: 4a34 0e3f 5532 9fbb eb26 17bd fd68 9a3f
00000050: b317 873f 9936 49bb 27aa 08be c630 b3bd
00000060: 1ee6 16be 36d0 803d bb45 60bd cf87 f3bd
00000070: 0000 0000 0000 0000 5731 443f 57e1 54bd
1.2114067 0.76861787 -0.080075435 -0.024785312 -0.15551314 -0.07885777 0.0 0.43649957
0.6665844 -0.015344949 0.49777156 -0.396329 -0.1415874 0.041898005 0.0 1.1464218
0.55548537 -0.004858295 -0.03690235 1.206329 1.0554107 -0.0030702709 -0.13346158 -0.08749537
-0.1473622 0.06289713 -0.054754 -0.11891138 0.0 0.0 0.76637787 -0.051972713
