MRTE/drlte/lib/checkpoints/agent1_ep40.pt (torch, 109643 bytes, 56 tensors)

gcn1.bias f4 [32]
000000 c4 59 0a 3e 00 00 00 00 46 c8 cb 3e 92 36 aa 3e
       0.13510805 0.0 0.39801234 0.3324476
000010 b0 af 20 3e 75 1f 83 3e 10 a7 b9 3e 1e 8b ce be
       0.1569202 0.25609937 0.3626027 -0.40340513
000020 00 00 00 00 e8 09 62 3d 19 b7 ab bc 9d 45 55 3e
       0.0 0.05518523 -0.020961331 0.20827337
000030 1b f6 9b 3e 00 00 00 00 00 00 00 00 f8 e6 a3 3e
       0.304612 0.0 0.0 0.32012153
000040 44 48 5e 3d 2a f3 b3 3e 52 55 b5 3c a4 c0 d4 3c
       0.054268137 0.35146457 0.02213541 0.025970764
000050 5f ab 05 bb 32 10 3e 3f 00 f5 27 3e fb bf 9a 3e
       -0.0020396335 0.7424346 0.16402054 0.30224594
000060 25 90 b0 3e f3 43 ad 3e 83 4b 49 3e 23 98 25 3b
       0.34484974 0.33840904 0.19657712 0.0025267683
000070 a0 94 e1 3d 00 00 00 00 00 00 00 00 04 84 b0 3e
       0.11014676 0.0 0.0 0.3447572

gcn1.lin.weight f4 [32, 6]
000000 7b d0 20 3e 40 08 da 3e 7d 58 9d 3f 88 d2 99 bd
       0.15704529 0.4258442 1.229263 -0.07510859
000010 0d 6f 7f 40 a2 f5 4b be 6f d7 83 be 42 ef 48 3d
       3.991153 -0.1991792 -0.257503 0.0490563
000020 c9 c8 7a be 07 b8 43 bd fe f4 c8 be 9b de a1 bd
       -0.24490656 -0.047782924 -0.39249414 -0.07903787
000030 bf 15 36 3e e8 91 1e bf dc 9e 85 bf 96 43 62 3e
       0.17781733 -0.61941385 -1.0439105 0.22096094
000040 41 02 6f bf 4d ad c5 3f 65 5d c3 3e c2 f7 97 be
       -0.93362814 1.5443512 0.38157192 -0.29681212
000050 37 60 44 bf e8 0a 79 3e 78 62 77 bf e7 26 c2 3f
       -0.7670931 0.24320567 -0.96634626 1.5168122
000060 95 27 50 3d 92 e7 60 3f aa ba 9b 3f 79 55 14 3e
       0.050819 0.8785335 1.216634 0.1448573
000070 4f 48 2e 40 a9 de 6d bf fd 35 de bd b6 53 0f 3f
       2.7231634 -0.9291788 -0.10850141 0.5598711
000080 75 51 80 3f 46 a3 67 3e 7c e5 6b 40 10 02 1b bf
       1.0024859 0.22620878 3.6858816 -0.6055002
000090 fe fe 36 bc c9 77 0e bf 9f d3 7e bf e0 ce dc 3e
       -0.011169193 -0.5565153 -0.9954166 0.43126583
0000a0 e3 95 84 bf 6a 8e e7 3f 4d f0 f7 bd 0c 6d c1 3f
       -1.0358242 1.8090336 -0.121063806 1.5111403
0000b0 a8 55 a9 3f 32 ee 9b be f3 92 6d 40 9f e8 de be
       1.3229265 -0.30455166 3.712094 -0.4353685
0000c0 aa ca a8 be a3 58 76 3e 66 72 6c bc 23 5b 83 be
       -0.3296712 0.2405725 -0.014431572 -0.2565547
0000d0 1d 21 7a 3e 96 fd 55 be 42 05 6f 3e a8 c6 2d 3f
       0.24426694 -0.20897517 0.2334185 0.6788125
0000e0 29 e0 98 3f 2d f8 57 3d 1d 99 2d 40 52 3e 9a be
       1.1943408 0.052726913 2.7124703 -0.30125672
0000f0 3d f1 65 bd b0 b2 c9 be 79 76 11 3e 98 2a 18 3c
       -0.056138266 -0.3939414 0.1420535 0.009287499
000100 ba 51 86 be 08 f1 b6 bc 04 77 b8 3e 02 cd b6 3e
       -0.26234227 -0.02233173 0.36028302 0.35703284
000110 80 98 88 3f d4 44 a4 be 65 ba 83 40 92 4d 1a bf
       1.0671539 -0.32083762 4.1165032 -0.6027461
000120 27 33 84 bd 8b fa ba be 57 3f 84 bf f7 68 c6 3e
       -0.06455069 -0.36519274 -1.033183 0.38751957
000130 41 6d 30 bf 2d c7 04 40 4a 9c bc be 0c aa 92 3d
       -0.6891671 2.0746567 -0.3683799 0.0716134
000140 63 a1 96 3e b2 70 fb bd a5 27 6f be 7b 94 84 3c
       0.29420003 -0.12277354 -0.23354967 0.016184082
000150 18 09 ac be 8e 35 76 be 66 26 90 3d 95 b2 27 be
       -0.33600688 -0.24043867 0.07038574 -0.16376717
000160 8a a9 84 bc 75 50 ac be f6 5e ce 3e 86 1b 79 be
       -0.016194124 -0.33655134 0.40306824 -0.24326906
000170 89 b1 af bf d7 1e 5a 3e b9 33 f7 3e 53 d0 5e 3f
       -1.3726054 0.21300827 0.4828165 0.8703663
000180 30 31 d2 3e fe 19 66 3f 42 29 b5 3f 01 4f 95 3d
       0.41053152 0.8988341 1.4153216 0.072904594
000190 23 6a 59 40 39 87 d6 be bb cf 1b 3e 50 bc ef be
       3.397103 -0.41900042 0.15215962 -0.4682336
0001a0 cf d0 70 bf b3 3e e3 3e 04 dc be bf f8 a6 b6 3f
       -0.94068617 0.44383773 -1.4910893 1.4269705
0001b0 e2 cc bd bd 5f ba 64 c0 42 55 b8 3e 87 3c 20 be
       -0.09267594 -3.5738752 0.36002547 -0.1564809
0001c0 d5 16 33 40 77 65 af 40 66 21 a6 3e 47 24 57 3f
       2.7982686 5.481136 0.32447356 0.8403973
0001d0 0f 32 2d 3f 60 7f 8e 3e 09 45 9f 40 8b 45 7e 3e
       0.6765451 0.27831554 4.977177 0.24831216
0001e0 e6 41 b9 3e 7d ba 6f 3f 31 65 b7 3f 8c 29 96 3e
       0.3618309 0.93643934 1.4327756 0.29328573
0001f0 1e 0c 2c 40 ce a4 61 bf 4e 8e 4a 3f 5a 0a b0 3f
       2.6882396 -0.88142097 0.7912339 1.3753159
000200 76 77 89 3e 5f cb 14 3f 48 5b 1d 40 29 82 cc 3f
       0.26848954 0.5812282 2.4586964 1.5977222
000210 a0 5d 92 3e e5 a4 3c 3d dd 25 88 3f 75 d3 55 3d
       0.28587055 0.046055693 1.0636555 0.052203614
000220 8d 48 97 40 4f 16 0c be 19 5e e2 3e ef a1 1d bf
       4.7276063 -0.13680385 0.44212416 -0.61575216
000230 f0 a1 37 bf da d2 53 3e be 4c 0d c0 b7 1b ae 3f
       -0.7173147 0.20685902 -2.207809 1.3602208
000240 cb 82 20 3f 3a c6 20 bf 49 61 0a bf bd 99 5c be
       0.62699574 -0.6280247 -0.54054695 -0.21543022
000250 6b f6 1f c0 75 d3 c2 3f f9 24 97 3e 5e 70 36 bf
       -2.4994152 1.5220782 0.29520395 -0.7126521
000260 f6 fb 94 bf a2 ae 71 3e 8f 66 a1 3f 7b de b2 3f
       -1.1639392 0.23601773 1.2609423 1.3974146
000270 d4 41 55 3d 4c ca 19 3f be 1b 73 3f 0e 3d d6 3d
       0.05206473 0.60074306 0.94964206 0.10460864
000280 3e 71 6a 40 1c 2c 5b bd 7b ec ca 3e 48 4e 2d 3f
       3.6631618 -0.053508863 0.39633545 0.6769757
000290 49 0e ad 3f 5f 9a f3 3d ae 03 51 40 8b 0c 2d bf
       1.3519984 0.11894678 3.2658496 -0.67597264
0002a0 e4 9e 3b 3e a2 84 5d bd 90 10 33 bf 47 74 11 3f
       0.1832233 -0.054081567 -0.6994715 0.5681805
0002b0 2a 04 0e c0 3c 66 8a 3f dc b2 9a be f8 96 c6 be
       -2.2190042 1.081245 -0.30214584 -0.38787055
0002c0 64 de 9b be 26 34 c3 be 68 ef de bd 7d 53 ba 3e
       -0.30443108 -0.38125724 -0.10885507 0.36391822
0002d0 cf 8e 30 be 18 34 71 be 00 a3 22 be 3a 83 45 3d
       -0.17241977 -0.23555028 -0.15882492 0.04822085
0002e0 5b bc 3f 3d 26 b2 a3 3c a5 76 3a 3e a3 d8 66 3f
       0.04681049 0.019982409 0.18209322 0.9017431
0002f0 cb 0b 2a bf d5 1b 01 3f bc 1e 52 c0 1b f9 bb bf
       -0.66424245 0.50433093 -3.2831259 -1.4685396

gcn2.bias f4 [32]
000000 2e 16 5c 3f 62 10 df 3e a5 75 21 3f af 0a cb bc
       0.85971344 0.43567187 0.63070136 -0.024785368
000010 a6 0f 26 be 44 80 a1 bd 00 00 00 00 61 e5 d8 be
       -0.16216907 -0.07885793 0.0 -0.42362502
000020 56 40 21 bd ea 03 8f 3e f8 31 12 3d aa a3 26 3e
       -0.039367996 0.27932674 0.035692185 0.1627337
000030 31 d6 0f 3f 8b 9c 2b 3d 00 00 00 00 b4 62 7f 3f
       0.56186205 0.041897338 0.0 0.99759984
000040 34 b3 82 be d2 a5 66 3f 4c 7a 2e 3f e1 e9 8b 3f
       -0.25527346 0.9009677 0.6815536 1.0930749
000050 33 cb 72 3f a6 36 49 bb af 26 12 3f 84 83 27 3f
       0.9484131 -0.003070274 0.57090276 0.6543505
000060 65 e6 16 be 74 48 4d 3f fd 98 50 bd d3 13 15 3f
       -0.14736326 0.8018868 -0.05092715 0.58233374
000070 00 00 00 00 00 00 00 00 54 fa 57 3d 01 2a f7 3e
       0.0 0.0 0.052728966 0.48274234

gcn2.lin.weight f4 [32, 32]
000000 8d 66 27 3e 60 c7 72 be 8f f6 5c 3f 21 5c 08 3e
       0.16347714 -0.23708868 0.8631372 0.13316394
000010 27 bb 43 bf df a5 25 3e a0 64 62 3f b2 ec 4d c1
       -0.76457447 0.16176556 0.8843479 -12.870287
000020 ea 11 b1 bd c5 a9 ef be 67 e8 09 be cd 3a 8c 3e
       -0.08645995 -0.4680921 -0.1346756 0.2738861
000030 c7 a5 8e 3f 52 87 b3 bc f6 ac 9a bd 39 dd 76 3f
       1.1144341 -0.021915112 -0.07552521 0.9643131
000040 1d e5 c1 3c c8 e2 03 3f 9f ca 4e 40 ba f6 d7 3e
       0.02366882 0.51517916 3.231117 0.42180425
000050 c4 92 d9 be 3a 05 41 3e 1b 2c a0 3e 4d df b3 3e
       -0.42494786 0.1884965 0.3128365 0.35131302
000060 47 a5 4b bc 29 f1 92 3f a2 07 f0 3b 06 ba 14 be
       -0.012429542 1.1479846 0.0073251287 -0.14524087
000070 4a 56 fc bc 86 87 8b 3e 5d 9a 98 3e ce cb 26 40
       -0.030802865 0.27251834 0.2980527 2.6061893
000080 d5 0c 88 bc 99 2c 93 3e b7 64 63 3f 45 25 12 3f
       -0.016607681 0.28744963 0.88825554 0.5708812
000090 5a d2 f0 be 0f 41 93 bd a5 21 5d 3f 5b e0 45 c1
       -0.47035486 -0.07190143 0.8637946 -12.367274
0000a0 cf e4 73 3e b9 4e c6 bc 68 c0 c0 3d 86 41 ad 3e
       0.23817752 -0.02420746 0.094116986 0.33839053
0000b0 a2 9d be 3f 94 a2 c9 3d 9e a2 cf 3d 78 fa 8b 3f
       1.4891856 0.098454624 0.10138439 1.0935812
0000c0 c0 c1 8b be a2 67 81 3e db ec 59 40 a3 ab ef 3a
       -0.27296257 0.25274378 3.4050815 0.0018285405
0000d0 fb 58 eb be 9b 50 8a 3e 44 d9 00 3f d0 d5 22 3e
       -0.45966324 0.27014622 0.5033152 0.15901875
0000e0 e5 88 ef 3e 93 bf 6f 3f 73 fb 73 3e 51 80 1a 3e
       0.4678413 0.93651694 0.23826389 0.15088011
0000f0 f8 99 05 3f b8 82 86 be 51 24 4d 3e 5d 38 21 40
       0.5218806 -0.26271605 0.20033385 2.5190651
000100 aa 97 a5 3f a3 c5 5f 3e 46 5d 48 be 72 a6 83 3e
       1.2936909 0.21852736 -0.19566831 0.25712925
000110 74 cb 94 3f 25 20 7f 3f f0 4c 5d bf f9 c7 3d 41
       1.1624589 0.99658424 -0.8644552 11.861321
000120 f1 5d a5 bd 11 15 82 3f 4e 17 b4 3c b7 67 a4 3f
       -0.080745585 1.0162679 0.021983769 1.2844151
000130 09 80 43 bf d7 83 3b bd ad 07 2e 3e 19 95 6c be
       -0.7636724 -0.04578003 0.16995116 -0.23103751
000140 06 15 65 3f 03 d3 59 bf 21 3b 2c 3f 63 46 92 3f
       0.89485204 -0.85087603 0.67277724 1.142773
000150 06 15 61 3f c6 38 96 3e b7 32 9b 3f 33 eb 2d bf
       0.87922704 0.2934019 1.2124852 -0.6793701
000160 a5 58 8e be d5 a7 36 3e 0e 16 99 3f f2 cc 38 3f
       -0.27802005 0.1783746 1.1959856 0.7218772
000170 88 ca a7 bf 48 ad 8f be 2e bd 1c 3e 25 7a ab bf
       -1.3108683 -0.2806189 0.15306541 -1.339665
000180 3b 19 57 be e3 6d 07 bd 3e 48 21 3e 04 17 b1 3e
       -0.21005718 -0.03306378 0.15750214 0.34587872
000190 d4 9c 4e bf 53 72 d5 be 82 a8 1b 3d d1 df 65 be
       -0.8070805 -0.41688785 0.0380025 -0.2244866
0001a0 c7 e8 93 be 00 b7 b5 be db bc 0c bd 7c a1 1d 3e
       -0.28888533 -0.3549118 -0.034359794 0.15393633
0001b0 17 28 a9 3d 54 3e 9a 3e 1d 8f f7 3d 8d ca e5 3e
       0.082596 0.30125678 0.120878436 0.44881096
0001c0 98 f9 f3 be da 2a eb 3e d1 ff 20 be dc 2a a5 be
       -0.47651362 0.4593113 -0.15722586 -0.32259262
0001d0 55 8b 34 bf 07 0d 4a be 93 9c bb be 2f 4c f4 3e
       -0.70525104 -0.19731532 -0.36642894 0.47714373
0001e0 68 37 ca 3e 28 bd aa 3e 29 0a 0f bf 1c a2 03 bf
       0.39495397 0.3334744 -0.5587488 -0.51419234
0001f0 2e c6 27 be 2a 4c 5d 3e e6 1e c9 3d 61 d1 2b be
       -0.16384193 0.21611086 0.098203465 -0.1677909
000200 1a 6e 24 be 49 04 5b 3d 2c 7d 03 3f d9 b3 b7 3e
       -0.16057625 0.053470884 0.5136287 0.358794
000210 35 2d 54 bf d5 65 bb be 90 e8 27 3f 81 b2 97 3e
       -0.8288148 -0.3660113 0.6558924 0.29628375
000220 f6 41 57 be bc de af be 9e 13 15 3e e1 cd ed bd
       -0.21021256 -0.3434962 0.14558265 -0.11611534
000230 f1 10 05 3f 63 36 94 bd 88 33 3d be 70 bd 18 3f
       0.51978976 -0.07236936 -0.18476689 0.5966406
000240 74 84 40 bf 1b ba 0b 3f 71 00 09 3c d5 e1 a5 bd
       -0.7520211 0.5458085 0.008361922 -0.08099715
000250 4e 50 10 bf aa d9 ab be ae 75 96 be e9 62 7c 3e
       -0.56372535 -0.33564502 -0.29386657 0.24647106
000260 1f 4e 77 bd 69 f3 8a 3e 2f f8 47 be 06 b5 e4 be
       -0.060377236 0.27138832 -0.19528268 -0.4466936
000270 f8 80 e4 3e b6 d7 f8 bd 84 89 9b be f3 1b c0 be
       0.44629645 -0.121505186 -0.30378354 -0.37521324
000280 d0 96 26 bf 5c ea ae bc 80 bc f5 3e 05 fe 18 be
       -0.6507387 -0.021351986 0.47995377 -0.14940651
000290 cb 3d db be 8a 71 0d bf 6f 81 45 3e 07 ab 20 3d
       -0.42820582 -0.5525137 0.19287656 0.039225604
0002a0 76 64 92 be 1b 8c 4d bf 28 5a a9 3d 2a ec 72 be
       -0.2859227 -0.8029191 0.08269149 -0.23722902
0002b0 e8 40 80 3e f8 d9 31 bd dc 89 2c be 9b 3b e7 3d
       0.2504952 -0.04342076 -0.16849464 0.11290666
0002c0 c6 9d 57 bf b7 b6 de 3e af ba cf 3e 46 f4 cf 3d
       -0.8422512 0.43498775 0.40572116 0.10154013
0002d0 f0 b5 09 bf 8b 56 10 3e e8 8a ad bc 38 08 b5 bd
       -0.5379324 0.14095514 -0.0211844 -0.08839458
0002e0 50 09 b8 3e 29 ce bc 3e 8d c7 98 be 4d 17 2c bf
       0.35944605 0.36876038 -0.29839745 -0.67223054
0002f0 f0 17 1f 3e d8 2e 9a 3e cb 1d 10 3d e6 82 04 be
       0.15536475 0.30113864 0.035184663 -0.12940559
000300 d0 fe 59 3e cb c2 77 3e 5c 87 b9 bd 58 bd 21 be
       0.2128861 0.24195401 -0.09059021 -0.15794885
000310 27 6d 39 3e 73 80 31 be 5c 4e e6 bd f9 02 0a 3e
       0.18108045 -0.17334156 -0.112454146 0.13477696
000320 b2 76 bf 3d 42 ad 8d be 03 2b 80 bd bd 98 5d be
       0.09348811 -0.27671248 -0.06258204 -0.21640296
000330 09 17 62 3e db 75 f9 3d e6 53 87 bd 89 97 1a be
       0.220791 0.12180682 -0.06607799 -0.15096869
000340 d5 32 65 3e f0 f9 7e be 78 94 d8 3d ac 87 79 be
       0.22382672 -0.24900031 0.10575193 -0.24368161
000350 02 1e 44 3d 9b c0 92 be 88 71 cd 3d f2 97 5c be
       0.04788018 -0.2866257 0.1003142 -0.21542338
000360 b0 e3 3f be ce 94 8e 3e 8a 65 0f 3e ae e2 3b 3d
       -0.187392 0.27847904 0.14003578 0.045870475
000370 d2 9a 65 3e 84 62 96 3d aa d1 06 be e3 2c 8c 3e
       0.2242234 0.07343009 -0.13165918 0.27377996
000380 43 80 ab 3f b6 04 9a bd 20 62 5c bf dd e8 81 bf
       1.3398517 -0.0752043 -0.86087227 -1.0149189
000390 2f f8 14 3f 93 7a 8a 3f 81 44 70 bf bd 20 3b c1
       0.581912 1.0818657 -0.9385453 -11.695493
0003a0 a0 53 bc 3d 88 69 70 3f 2a 90 22 3d 44 d9 eb 3f
       0.09195638 0.9391103 0.039688267 1.8425679
0003b0 11 3c b5 3d 0b 12 3e bc c0 bc bb bd 00 cd cb 3e
       0.088493474 -0.0116009815 -0.091668606 0.3980484
0003c0 6f 13 41 3f 3d b8 b3 bf 0b 11 c6 40 72 6d cd 3f
       0.7542028 -1.40406 6.1895804 1.6049025
0003d0 bd 94 da 3e 7d 4f e1 3e 71 02 dd 3f bf 28 0c c0
       0.42691603 0.44005957 1.726637 -2.189987
0003e0 1a 33 dd bf 0a e6 e0 3f 0d 26 c5 3f 56 94 77 3f
       -1.728122 1.7570202 1.5402237 0.9671072
0003f0 f1 f3 01 c0 9a c9 8e bd a8 b0 81 be e4 b1 e2 3f
       -2.030514 -0.06972046 -0.2533009 1.7710538

mlp.0.weight f4 [32, 32]
000000 9c 3b d8 40 f3 ef a9 40 a7 04 b7 3f 31 db 89 3d
       6.7572765 5.3105407 1.4298295 0.067312606
000010 00 85 01 bf b7 ca f7 bd df 30 19 3e f3 fd c0 40
       -0.50593567 -0.12099212 0.14960049 6.0309997
000020 4b 51 d8 40 68 be 11 c1 65 9a 94 40 e0 1d 69 c0
       6.7599235 -9.108986 4.643847 -3.6424484
000030 e5 27 9b 3f 2e 08 be 3d 1d 9e 48 bd 23 60 57 40
       1.212155 0.09278904 -0.048978914 3.3652427
000040 0a bc 9e 40 ee 23 57 be 73 81 fc 3f b3 45 85 40
       4.960454 -0.210098 1.9727005 4.164758
000050 18 e2 76 40 c0 60 40 bc ed 3e c6 3f 0f 6c 2d 40
       3.8575497 -0.011741817 1.5487953 2.7097204
000060 74 33 7c be b7 65 19 40 41 de fb 3d 85 9c ad 3f
       -0.24629003 2.3968332 0.12298251 1.3563391
000070 06 da 13 be 09 5f bc 3d 8d 4c fd 40 80 ce a8 c0
       -0.14438638 0.09197814 7.9155946 -5.2752075
000080 1f f0 51 3e 75 5f d5 3e d8 3b b7 be b6 7c 8d be
       0.20501755 0.4167439 -0.35787845 -0.2763421
000090 e6 2c 00 3f da 5f de be 75 cf 03 3e 39 cb 25 be
       0.5006851 -0.43432504 0.12872107 -0.16190805
0000a0 75 2a a3 3e 13 0e 9a 3d f1 07 8d be 1c 15 12 3d
       0.3186833 0.07522216 -0.2754512 0.035664663
0000b0 50 55 c7 be 03 31 41 be 3a d0 21 be e6 30 94 3e
       -0.38932276 -0.18866353 -0.15802088 0.28943557
0000c0 9b 73 01 bf 10 72 81 3d 2d fe 5d be 7d f1 88 3e
       -0.50567025 0.06320584 -0.21678992 0.2674674
0000d0 7a 7b 57 3e 88 a0 fd bd 33 31 8e be 86 f4 85 be
       0.21043196 -0.123841345 -0.2777191 -0.2616312
0000e0 7b 85 65 be f1 31 e5 be e3 bd bc 3d ab bb 88 be
       -0.224142 -0.44764665 0.092159055 -0.2670568
0000f0 9a 7c 27 3e a0 8f 25 bc f5 6b 50 be fd a5 e4 bd
       0.16356125 -0.010105044 -0.20353682 -0.11164472
000100 96 68 09 c1 b9 1f dc c0 52 8b 61 40 71 d1 9d bd
       -8.588034 -6.8788724 3.5241284 -0.077059634
000110 52 ac 89 bd ee b4 3d 3e 1a ce 1b 3e 39 82 d6 bf
       -0.067223206 0.1852605 0.1521534 -1.6758491
000120 96 66 58 c0 ba 9b 83 40 ce c7 a1 3f 89 9f b0 40
       -3.3812613 4.1127596 1.26391 5.5194745
000130 ac 08 6b 40 52 cd 9d bd 35 6a 0b be c1 c5 13 c1
       3.6724043 -0.07705177 -0.13614734 -9.23578
000140 4b 72 a2 3e 48 23 82 3f a6 46 48 40 f7 f1 18 c1
       0.31727824 1.0167017 3.129312 -9.559073
000150 a3 cb 0c c1 86 41 f7 bd 47 f8 69 40 f1 f8 2f 40
       -8.799716 -0.120730445 3.6557786 2.7495692
000160 aa 56 c5 3d dc 4e 2d 40 1f 32 31 3d 57 6d 74 40
       0.096356705 2.7079382 0.04326069 3.8191736
000170 b4 3f 46 bd d0 27 e0 bd c3 a5 70 c0 9d c6 c3 40
       -0.048400596 -0.10945094 -3.7601173 6.117995
000180 e8 a9 c4 c0 32 13 8c c0 19 ed 65 40 54 a3 6c be
       -6.1457405 -4.377343 3.5925963 -0.2310918
000190 70 36 22 be bd ba b1 bd d0 24 4a bd de b1 0e 3f
       -0.15841079 -0.086781956 -0.049351513 0.55740154
0001a0 31 90 e4 bf 28 da a1 40 ad c1 e0 3f 32 ff bd 40
       -1.7856504 5.0578804 1.7559105 5.937402
0001b0 5e 4e 74 40 f8 b8 bd 3d e2 be 16 3d 23 2e 9e c0
       3.8172832 0.092637956 0.036803134 -4.943132
0001c0 cc 62 bc 3f 57 1a e7 3e 78 da 4c 40 61 2b b2 c0
       1.471765 0.45137283 3.2008343 -5.5677953
0001d0 74 5b a2 c0 b3 c1 23 3e bc 50 58 40 25 4b 2a 40
       -5.0736637 0.15991859 3.3799276 2.6608365
0001e0 89 7b f3 bd 99 12 37 40 1f 97 33 be 9a 3e 75 40
       -0.11888797 2.86051 -0.17538117 3.831946
0001f0 e4 7e 1a bd da c4 33 3e cf 63 e2 bf b0 b7 a1 40
       -0.03771867 0.17555562 -1.7686709 5.053673
000200 91 ef dc 40 ce 80 a8 40 8b fe f8 3f 16 10 3b 3d
       6.904244 5.265723 1.945268 0.045669638
000210 8d 32 f7 be 7e e0 24 3c a1 fd 1c 3d 23 6c ca 40
       -0.48280755 0.010063289 0.038327817 6.3257003
000220 15 a5 e5 40 4d 88 14 c1 c5 28 99 40 92 eb 67 c0
       7.1764016 -9.283277 4.7862267 -3.623753
000230 80 89 bd 3f 05 74 0d 3c 54 81 cb 3d 60 12 43 40
       1.4807587 0.008633618 0.09936777 3.0479965
000240 b9 b2 a2 40 e8 e8 07 bd 61 90 12 40 a2 55 86 40
       5.0843167 -0.0331811 2.2900622 4.197953
000250 1f 58 64 40 08 4f 22 be b1 b4 d1 3f 31 17 50 40
       3.5678785 -0.1585046 1.6383268 3.2514155
000260 0a 6f 60 bd c7 59 2c 40 a8 f2 3e 3e e7 0e 98 3f
       -0.054793395 2.6929796 0.18647254 1.1879548
000270 64 11 01 3e 5b c3 75 bd c4 86 f8 40 de ac ae c0
       0.1260429 -0.06000076 7.766451 -5.458602
000280 13 05 e8 40 3d e7 9f 40 0f f5 e8 3f 42 a5 07 3f
       7.2506194 4.9969773 1.8199786 0.5298654
000290 c5 71 53 be 72 ba d5 3e 66 63 12 bd 32 3e cd 40
       -0.20648868 0.4174381 -0.035739325 6.413842
0002a0 f2 b4 d5 40 68 2b 10 c1 a4 d7 9f 40 f3 fd 6b c0
       6.678338 -9.010597 4.9950733 -3.6873748
0002b0 63 d4 c0 3f d4 14 0e 3f f0 35 0f 3e a6 f2 5e 40
       1.5064815 0.5550053 0.1398542 3.48356
0002c0 1e 02 b7 40 bc c8 95 be 0f 05 07 40 52 78 84 40
       5.7190084 -0.2925471 2.1096838 4.1396875
0002d0 bc 1e 78 40 36 3e 8d 3d af 2d 87 3f da 9c 3d 40
       3.8768759 0.068966314 1.0560817 2.9626985
0002e0 ad e0 cc 3e e9 b3 31 40 97 a0 16 bd b3 d9 95 3f
       0.40015164 2.7766058 -0.036774244 1.1707062
0002f0 69 2f 11 be 31 35 ac 3d c9 93 fd 40 1a 8a a1 c0
       -0.14178242 0.08408583 7.92429 -5.048108
000300 d2 e6 5c 3e f9 80 cd 3e d5 02 61 be a1 82 64 be
       0.21572426 0.4013746 -0.21973737 -0.22315456
000310 3f ba ed 3e 43 f1 e8 be 56 58 2f be 41 c6 5b be
       0.46431157 -0.45496568 -0.17123541 -0.21462347
000320 75 08 9f 3e f9 58 57 bd 9f cc e5 be 00 0d 15 3e
       0.3106114 -0.052575085 -0.44882676 0.1455574
000330 d3 65 93 be 78 bf 44 be 23 75 39 bd e3 91 a0 3d
       -0.28788623 -0.19213665 -0.045277726 0.07840326
000340 54 7f 01 bf 15 c9 b3 bd cb 5f cf be a0 70 b5 3e
       -0.5058491 -0.08778588 -0.40502772 0.3543749
000350 3d a2 a6 3e 60 9e c9 bd 66 28 67 be fd a9 9f bd
       0.32545653 -0.09844661 -0.22574005 -0.077960946
000360 45 64 42 be b0 0e db be e0 0e 11 3e 31 81 c1 be
       -0.18983562 -0.42784643 0.1416583 -0.37793878
000370 9f 8d 67 bd 32 74 9a 3d 6f 77 ef bc 58 3e 1c be
       -0.056531545 0.07541694 -0.029231755 -0.15258157
000380 05 1a 19 c1 9e dd d8 c0 11 b1 94 40 0c 88 39 be
       -9.568852 -6.777053 4.6466146 -0.18118304
000390 56 41 e8 be ab 4c b4 be 19 6b 19 bc dc 38 b3 bf
       -0.45362347 -0.35214743 -0.009363913 -1.4001727
0003a0 90 c8 49 c0 a4 71 bf 40 a7 8e c7 3f 1f 2f d6 40
       -3.1528664 5.982622 1.5590409 6.693252
0003b0 5a b9 98 40 c3 78 df 3d 0a 4a 32 3d 62 ab 22 c1
       4.772626 0.10911705 0.04352764 -10.1668415
0003c0 f9 c3 2e 3f 7e 91 8a 3f 7c bf 84 40 69 43 26 c1
       0.6826778 1.0825651 4.1483746 -10.391458
0003d0 e2 2f 19 c1 b5 3f f1 bd 0f 62 94 40 57 21 63 40
       -9.57419 -0.11779729 4.63697 3.54891
0003e0 c8 05 86 be 1f 8c 71 40 8a 23 17 be ff 9b 98 40
       -0.26176286 3.7741773 -0.14759651 4.7690425
0003f0 8e 4c 2f bd f4 07 22 be 66 ff 5b c0 0c 81 f3 40
       -0.042797618 -0.15823346 -3.4374633 7.609503

mlp.0.bias f4 [32]
000000 79 3c 0c bf 21 42 a3 bd c9 a4 53 3e 9f 72 07 40
       -0.54779774 -0.079715975 0.2066833 2.116371
000010 d3 67 02 bf c1 4a 19 bf 40 84 fd bd f5 95 e8 3f
       -0.50939673 -0.5987969 -0.1237874 1.8170763
000020 8a fa 26 40 cc b8 b9 3f 6f f0 26 bf 30 3c c2 3f
       2.6090417 1.450952 -0.6521062 1.5174618
000030 fe 7c 78 3f 37 50 d1 3b 51 b7 19 40 e3 4d 0e bf
       0.9706572 0.006387736 2.4018137 -0.55587596
000040 ef b6 16 40 e5 48 25 bf 65 93 40 bf 8e bc 0d bf
       2.3549154 -0.64564353 -0.75224906 -0.55365837
000050 bf 48 9d 3d f5 d8 16 bc 4c 37 41 40 84 1b af 3f
       0.07679891 -0.009207 3.019 1.3680272
000060 82 25 69 40 66 f0 1c 40 ed 4f 40 bf 64 5d 33 be
       3.6429143 2.4521728 -0.7512196 -0.17516094
000070 b4 ae da 3f 0e 2f 13 40 4b bd d3 bd ad 07 0a 3d
       1.7084565 2.299747 -0.10338839 0.033698726

mlp.2.weight f4 [1, 32]
000000 18 64 0a c1 11 9b 4b 3f 8a ee 7a 41 45 b7 37 41
       -8.649437 0.7953349 15.683237 11.482244
000010 f8 9f 05 c1 a9 7a 03 c1 9c 27 54 3f c7 0d 6c 41
       -8.351555 -8.217446 0.8287294 14.753364
000020 99 15 3b 41 03 31 7d 41 c4 04 fc c0 45 d0 29 41
       11.692773 15.824466 -7.8755817 10.613347
000030 a5 4a 80 41 e5 4f a9 3f 03 09 47 41 bd db 05 c1
       16.036448 1.3227507 12.4397 -8.366147
000040 87 58 6f 41 16 d9 01 c1 57 bb 02 c1 16 71 02 c1
       14.959113 -8.1154995 -8.170737 -8.152609
000050 e9 a2 a1 3f 05 a8 0c be 38 6e 35 41 6b 40 80 41
       1.2627841 -0.1373597 11.339409 16.031454
000060 91 6a 28 41 70 18 2c 41 7f 4d 00 c1 5d 8c da 3e
       10.526017 10.755966 -8.01892 0.42685214
000070 95 c3 49 41 36 f6 47 41 7c 0b 31 be 3d e5 5e 3e
       12.6102495 12.49761 -0.17289537 0.21767135

gcn1.bias f4 [32]
000000 12 c4 bf 3d a7 cc 9d bf 00 00 00 00 db c4 82 3b
       0.09363569 -1.232808 0.0 0.003990752
000010 0b a4 a9 3d 6d 90 be 3c d5 22 a1 bd c5 35 63 bf
       0.08283242 0.023262227 -0.07867972 -0.8875392
000020 87 e5 ca 3d c3 82 93 bd bd 2e 1c 3c 6b 58 98 be
       0.0990706 -0.07202675 0.009532628 -0.29754958
000030 00 00 00 00 8e bf e0 bd f8 6a 84 bd dc c8 ad 3d
       0.0 -0.10974036 -0.06465715 0.084855765
000040 cb 80 d7 3c cd 81 9b 3d bc 4b a6 3d bf 7e 83 3d
       0.02630653 0.07593117 0.08119914 0.06420659
000050 9a 90 0e bf 00 00 00 00 11 6e ab bd 00 00 00 00
       -0.55689394 0.0 -0.08370603 0.0
000060 b4 66 b1 3c 6e 8c 51 bd 1b 84 b9 3c 00 00 00 00
       0.021655418 -0.051159315 0.022646 0.0
000070 9b ca 6a bd 69 62 8b be dc 33 e2 3c e7 c2 89 3d
       -0.057322126 -0.27223518 0.02761262 0.06726628

gcn1.lin.weight f4 [32, 6]
000000 15 23 e4 be 9a f0 1e bf 15 df 4c bf bb 70 30 be
       -0.44558015 -0.6208588 -0.80027896 -0.17230503
000010 b6 e1 d5 3e f5 80 19 3f f0 31 2c bf d5 ec 80 3f
       0.41773766 0.599624 -0.672637 1.0072275
000020 ef 4c a9 3f 06 6e ab bf e9 5d 9f 40 75 03 99 40
       1.3226603 -1.3392951 4.9802136 4.781672
000030 bf 37 65 bd 89 a0 5c be ba 93 bb bd 9a fd d0 3c
       -0.055961367 -0.21545614 -0.09159036 0.025511552
000040 47 f6 c2 be e1 bb 2b 3e d0 6b 83 be f4 b2 36 be
       -0.3807852 0.16770889 -0.25668192 -0.17841703
000050 13 48 ce be ea ba ac be 4c ba 3a 3e 8c 9f 28 3f
       -0.40289363 -0.33736354 0.18235129 0.6586845
000060 e2 42 00 bf f2 05 72 be f5 b9 d4 be fc 6e 3c be
       -0.50102055 -0.2363508 -0.41548124 -0.18401712
000070 59 ae 75 3f e3 d9 83 3e 81 2c 55 be 9f da 0d 3e
       0.9596916 0.25752172 -0.20817758 0.13852929
000080 0d 80 a1 be b9 24 04 be 6c e8 e7 be a7 ea 86 be
       -0.31543007 -0.12904634 -0.4529451 -0.263509
000090 ec 10 c7 be d8 ec 69 c0 d2 08 8e bd f8 24 80 be
       -0.38880098 -3.6550808 -0.06935276 -0.25028205
0000a0 65 4d 8e 3f ab a4 2b 3f 15 6c c5 bd 4e f6 4e 3f
       1.1117369 0.6704814 -0.09639756 0.8084458
0000b0 64 3a 8b 3f f0 cc 84 bf a8 67 16 40 91 78 42 40
       1.0877194 -1.0375042 2.3500767 3.0386088
0000c0 e5 08 18 bf aa ef 8f 3e 7a 4b 89 3e 86 2c 92 be
       -0.5938857 0.28112537 0.26815397 -0.28549594
0000d0 b8 97 76 3b 87 ba 85 be 65 59 f6 bd f0 15 31 c0
       0.0037627053 -0.26118872 -0.120287694 -2.766964
0000e0 c3 a0 7f c0 14 09 d0 bf cf 29 d6 40 85 92 d4 40
       -3.994187 -1.625277 6.6926036 6.6428857
0000f0 8c cd 6e be db 79 36 be 2b 9a 93 be 84 76 91 be
       -0.23320597 -0.17819922 -0.28828558 -0.28410733
000100 5b 56 3c 3f 25 c3 c2 3e a5 cf 90 be 3a 57 e9 bd
       0.7356927 0.38039508 -0.2828342 -0.1139359
000110 ef f4 47 c0 82 44 9e bf cd b7 1b 40 56 b5 34 40
       -3.1243246 -1.2364657 2.4330933 2.8235679
000120 73 dd b7 be 0c 07 3e be 6f 74 bb 3c bb 97 7f be
       -0.3591114 -0.18557376 0.022882668 -0.24960224
000130 75 c4 69 bd 29 09 77 be 05 a9 99 3d 3f d3 f4 3d
       -0.05707212 -0.24124588 0.07502941 0.119543545
000140 ab de 6d be 3d 46 a0 bc fc 05 84 bd 26 c9 d3 3c
       -0.23229472 -0.019564742 -0.06446454 0.025852751
000150 c7 f0 98 be 07 0e 81 be e6 cc a6 be 59 18 d0 be
       -0.298712 -0.25206015 -0.325782 -0.40643576
000160 93 9b 3c 3f 4b d8 32 3f c7 46 31 bf 05 ae 3b bf
       0.7367489 0.69861287 -0.6924862 -0.7331241
000170 f0 f9 b1 bf 09 16 b8 3d 34 81 00 3f 20 ca df bc
       -1.39044 0.08988578 0.5019715 -0.02731806
000180 ae 7c 04 bf 69 b6 09 bf 87 f0 2e bf 43 87 0a bd
       -0.51752746 -0.5379396 -0.68335766 -0.033820402
000190 b3 aa 6f 3f c8 fe 81 3e 53 33 da be b6 ce 47 be
       0.9361984 0.25389695 -0.42617282 -0.19512448
0001a0 01 6c 03 bf 22 1a 33 be 7f b1 83 3e f8 9a 48 3f
       -0.51336676 -0.17490438 0.25721356 0.78361464
0001b0 81 5b a2 be 11 f7 21 bf 21 c9 2c be 32 58 e5 ba
       -0.31710437 -0.6326762 -0.168736 -0.0017497598
0001c0 d0 77 8c bd 75 44 05 3e 70 fb 2f bf 5a ad 9b be
       -0.0685879 0.13014396 -0.6874304 -0.30405694
0001d0 fc 41 11 bf 66 9f ca bc ee aa 0d 3f 9c 91 71 3f
       -0.5674131 -0.02473421 0.55338943 0.9436281
0001e0 f1 18 c1 be f5 a9 2c bf 91 27 19 c0 a4 ca aa 3f
       -0.3771434 -0.67446834 -2.39304 1.3343091
0001f0 6e f7 c4 bf 89 5f 88 bf c3 d8 b7 be 75 b7 5a be
       -1.538801 -1.0654155 -0.35907564 -0.21359046
000200 22 64 c7 be 14 8b c3 3d 59 53 42 bd 6b 89 be bd
       -0.38943583 0.095480114 -0.047442768 -0.09303554
000210 a4 f1 26 bf 78 34 a4 be 4a ea 88 be d9 ab 6e bf
       -0.65212464 -0.3207128 -0.26741248 -0.9323097
000220 13 8e eb 3f ed 9a 00 40 06 24 4f be 4a b3 71 be
       1.8402733 2.009456 -0.20228586 -0.2360355
000230 b6 25 81 be 6d c7 a9 bd 87 e5 90 bb 3c 67 60 be
       -0.25224084 -0.082899906 -0.004421893 -0.21914381
000240 b9 07 d7 bd 1f 7b 15 bf 4a 62 8c be 98 13 53 bd
       -0.1049952 -0.5839099 -0.2741874 -0.051532358
000250 69 99 28 3e e1 be dd 3c 67 6a 0d be ef f8 c0 be
       0.16464771 0.027068557 -0.1381012 -0.3768992
000260 c6 9a 19 3e 7c 5d bd 3c 93 0f 8c be c7 6e 58 3e
       0.15000448 0.023115866 -0.27355632 0.21136008
000270 19 54 40 be 31 7d 51 bf eb 90 40 bf dd 76 b3 bf
       -0.1878208 -0.8183165 -0.7522113 -1.4020649
000280 81 b6 12 3f eb ff a7 bc ed c0 6f be 3e 13 b1 bd
       0.5730973 -0.020507773 -0.23413439 -0.08646248
000290 17 10 49 3d 26 01 0d 3d 03 4d a8 be 55 48 76 3e
       0.04908761 0.034424923 -0.32871255 0.2405103
0002a0 6c 1c c3 be 63 1d 5a be 3c 98 58 be f9 35 0d bf
       -0.38107622 -0.21300273 -0.21151823 -0.5516048
0002b0 dd 34 8b 3f 05 83 ae 3f 49 49 cd 3e e9 ea f6 bf
       1.0875508 1.3633734 0.40094975 -1.9290439
0002c0 98 f6 49 bf 8a 9b 09 3f ba 28 0c c0 f3 5d 16 c0
       -0.788919 0.5375296 -2.1899858 -2.3494842
0002d0 b9 ab 2a bf ae c9 6a bc 54 14 d8 be 7c 38 2c 3d
       -0.6666828 -0.014330311 -0.4220301 0.042046055
0002e0 9c 2f 17 3f 10 75 05 3f b9 62 ea be 43 07 16 bf
       0.5905702 0.5213175 -0.45778444 -0.5860483
0002f0 dc a2 bb be 63 25 3e be 3b 49 cf 3e 72 4c 62 3f
       -0.3664769 -0.1856895 0.40485558 0.88397896

gcn2.bias f4 [32]
000000 a7 c5 e6 bf 20 a1 ca bf 6b e3 f2 be 1e 90 da bd
       -1.8029069 -1.5830421 -0.4743913 -0.106720194
000010 7e 42 01 be 40 80 8b be 19 fd 4b bd 4e 49 9e bd
       -0.12623021 -0.27246284 -0.04980192 -0.077288255
000020 91 3b 74 be cb 3a 01 be e6 a5 d5 bd f4 40 ae be
       -0.23850848 -0.12620084 -0.10432033 -0.3403393
000030 db 9b de be 26 f9 8e bd 74 c0 24 be 9e 32 36 bd
       -0.43478283 -0.06981115 -0.1608904 -0.044481866
000040 ef 9d dc bd 5b 20 17 bf 08 4d 20 be 17 4c 85 be
       -0.10772311 -0.59033746 -0.15654385 -0.26034614
000050 c9 be c7 be 91 12 02 bd b1 fb 7e be 84 f3 d9 bd
       -0.39012745 -0.031755988 -0.249007 -0.1064215
000060 ab 5f 2f be 7d 71 06 be 66 36 b7 bd 31 d4 b0 bd
       -0.17126338 -0.1312923 -0.089459226 -0.08634222
000070 b4 55 07 bf 12 35 ce bd d2 fa e5 bf 4e 4b 75 be
       -0.5286515 -0.10068716 -1.7967169 -0.23954508

gcn2.lin.weight f4 [32, 32]
000000 f2 52 d1 bd fc eb cf 40 85 ae 02 3c d9 45 82 ba
       -0.10220899 6.4975567 0.007976179 -0.0009939029
000010 26 4e fe bd c6 44 19 be b0 d1 0d bc e6 77 06 40
       -0.124172494 -0.14967641 -0.00865595 2.101068
000020 ac ba 0e 3e 7d 9e 0a 40 89 12 16 3e 52 0d 61 3f
       0.13938397 2.1659234 0.14655508 0.8791095
000030 48 47 a7 3c 87 7f 99 3e 3b 4c 50 3e 2a 8e bc 3e
       0.020419732 0.29980108 0.2034158 0.36827213
000040 3c 2e 1b 3e 0b b3 f7 bd 7d 4e 07 be f7 7c 72 3e
       0.15154356 -0.120946966 -0.13213535 0.23680483
000050 8c 31 96 3d bc 36 9a 3d 69 b1 6c bf 14 40 c1 bd
       0.07333669 0.07529971 -0.92458206 -0.0943605
000060 fd 19 22 bd b2 68 f0 3d ba 34 d8 3e 72 a7 47 be
       -0.039575566 0.11738719 0.42227727 -0.19497469
000070 22 15 2d 3e db 10 09 be 96 15 9d 3e dd 61 d4 bd
       0.16902593 -0.13385336 0.3068053 -0.103702284
000080 60 45 8a 3e a1 c2 de 40 f6 f3 87 bd a6 12 f5 bd
       0.27006054 6.9612584 -0.06638329 -0.119664475
000090 87 97 55 3e ed 55 a3 3c 66 3c 02 39 3b 77 0f 40
       0.20858584 0.019938434 0.00012420266 2.2416523
0000a0 1c 86 3d 3e bd 79 50 40 0e f7 b4 bd ec 01 55 3f
       0.1850819 3.2574303 -0.088361844 0.8320606
0000b0 ff 4d 86 bd 5f 3f 93 3e 48 2b 77 3e 20 dc 6b 3e
       -0.06557845 0.28759286 0.24137604 0.2303319
0000c0 f2 23 3f be 78 bd 17 bd cf 5c 7b bd d4 c2 72 3e
       -0.18666056 -0.037045926 -0.061367806 0.23707134
0000d0 ba bd a6 3d 50 34 99 bb 6b b4 85 bf 2a 52 91 be
       0.08141656 -0.0046754256 -1.0445684 -0.28383
0000e0 95 54 a7 ba 68 ce 3c 3e d4 9c 2c 3f 4f 6b 2e 3e
       -0.0012766296 0.18438113 0.674268 0.17033122
0000f0 d7 7b 8e bd 29 09 0d 3e 14 90 a0 be 24 29 8e be
       -0.06957214 0.13773026 -0.31359923 -0.27765763
000100 74 05 a6 be e7 01 b3 40 e6 ce f7 bd 01 a8 40 3e
       -0.32426035 5.593982 -0.121000096 0.18814088
000110 4d 05 75 3d 4c 5c 14 3d 76 c0 a8 3d 1f d9 1c 40
       0.05981951 0.036220834 0.08239834 2.450752
000120 af a8 e0 3d 37 dc 4e bc e0 c7 75 3e 7a ea 80 3f
       0.10969674 -0.0126257455 0.24002028 1.0071557
000130 be 54 35 bc 3d 27 0c be 25 61 7b 3e a7 35 d4 3d
       -0.011067567 -0.13686843 0.24548776 0.10361796
000140 02 3d 87 3e 25 f2 75 be d9 e7 8f be 29 cc 24 3e
       0.26413733 -0.24018152 -0.28106573 0.16093506
000150 df a2 dc bc 9c 34 33 be 4a 87 67 bf 53 11 20 3e
       -0.026933132 -0.17500538 -0.9044081 0.15631609
000160 d0 a3 4c bd 73 18 38 be 94 77 eb 3e a6 57 61 3e
       -0.04996091 -0.17978077 0.45989668 0.22006091
000170 31 bb 82 be 95 a5 37 be 8c 14 b2 3d 44 24 43 3d
       -0.2553344 -0.17934258 0.08695325 0.047642007
000180 ec 55 bd be 67 ad a3 be 10 e8 2e bd 73 ec 04 39
       -0.36979616 -0.31968233 -0.04270178 0.00012676585
000190 03 8a 95 be d0 dd 68 be fc 68 fc bd d8 cf 3d be
       -0.29206857 -0.22740865 -0.12324712 -0.18536317
0001a0 b0 c1 26 3d 0a 72 55 be b5 13 3c bb 6e fe 59 be
       0.04071206 -0.20844284 -0.002869827 -0.21288463
0001b0 77 c8 3e be b6 ce 45 3e e6 9c 64 be db ba 0c 3d
       -0.18631159 0.19317135 -0.22325477 0.034357887
0001c0 63 3d a3 be 5c 0a 7b 3d d4 69 c1 3d 08 50 48 3e
       -0.31882772 0.061289176 0.09444013 0.1956178
0001d0 14 74 de 3d 9d 25 9b be be 36 1b 3d 07 d0 4e be
       0.10861984 -0.30302134 0.037894003 -0.20196544
0001e0 1a a3 96 3e 06 c1 5a 3c b3 7f 69 3e 11 06 94 be
       0.29421312 0.013351684 0.2280262 -0.28910878
0001f0 ce 17 c6 3d 54 61 08 be e2 c2 c4 bc 37 92 07 3e
       0.09672509 -0.13318378 -0.024018709 0.1323937
000200 82 bc 13 be b1 bb 9b 3d 02 ab af 3d d0 f3 4e be
       -0.14427379 0.07604159 0.08577539 -0.20210195
000210 84 48 00 bd a1 77 d6 bc b1 a1 66 3e c3 73 11 3e
       -0.031319156 -0.02618009 0.22522618 0.14204316
000220 a5 3f 93 3e 25 3b d5 3d fa 41 af be 41 dc 91 be
       0.28759494 0.104116715 -0.34230024 -0.28488353
000230 a3 dc 85 3e c2 29 df 3c eb 0b 98 be 69 ff 1b 3c
       0.26144895 0.027241591 -0.29696593 0.009521344
000240 b4 3d 7d be a1 5d 24 be 8e 55 69 be b2 37 83 3b
       -0.24730569 -0.16051342 -0.22786543 0.004004442
000250 ab 12 6f be d8 20 a0 bd ad 11 7c be b0 cb 40 3c
       -0.23346965 -0.078187644 -0.24616118 0.011767313
000260 a4 6a 14 be 74 ba b3 3d f5 0b 3a be e3 82 4b 3e
       -0.14493805 0.087757975 -0.18168624 0.19874148
000270 0e b7 62 3d 6e 33 13 3d f2 38 ba 3d 3c 8e de 3c
       0.055350356 0.03593772 0.09092893 0.027167432
000280 9f 04 5b 3e 41 3a d1 3f 1c 47 40 3e c6 f3 b4 bd
       0.21388482 1.6345903 0.18777126 -0.088355586
000290 f7 dd 07 be 00 fb 4a be 00 f0 87 bc 08 20 16 40
       -0.13268267 -0.19822311 -0.016593933 2.345705
0002a0 ca 85 28 bb a3 11 1a bf 55 75 41 be ee df ac 3f
       -0.002571451 -0.6018316 -0.18892415 1.3505838
0002b0 2e 84 37 be 6d 85 cc bd e6 ab bf bd 42 72 9d 3e
       -0.17921516 -0.099863864 -0.09358959 0.30751234
0002c0 29 70 50 bc de 21 04 3e d7 90 51 3e 4c ab b0 3c
       -0.012722054 0.12903544 0.20465408 0.021566056
0002d0 bd 3e c3 3e 77 f3 29 be 21 9a 82 bf 58 44 57 be
       0.38133803 -0.1659678 -1.0203286 -0.21022165
0002e0 c6 c9 99 3c 9b f0 4e 3e b7 4f 38 3e 83 2e 75 be
       0.01877297 0.20208971 0.17999159 -0.23943524
0002f0 5e c8 ff bd 21 44 3a 3e 16 76 d5 bd 52 f3 a9 be
       -0.12489389 0.18190052 -0.10422914 -0.3319345
000300 4a b2 a6 be 97 0b 9a be 10 6e eb bd ae 5b cc be
       -0.325579 -0.30086967 -0.11495602 -0.39913696
000310 d6 1c fa bd 3d 2c 49 3e 3f dd 99 be 73 5b d3 3c
       -0.12212531 0.19645782 -0.3005161 0.025800442
000320 50 8e 4d 3d 29 5c 12 be 9a df 6a be f1 2f ae bb
       0.050184548 -0.14292969 -0.2293686 -0.0053157737
000330 3f f0 7c be 83 31 4f be a9 e4 8c bd ee 25 62 3e
       -0.24701022 -0.20233731 -0.06879551 0.22084782
000340 cc 59 79 3e c2 28 73 be 37 9c c6 bc c7 99 8c be
       0.24350661 -0.23746017 -0.02424441 -0.27461073
000350 79 13 4f 3d b6 7c 6c be 44 76 2e 3d 80 96 89 3e
       0.05055568 -0.23094448 0.042593256 0.26872635
000360 c1 55 83 be d4 31 98 3e dc ee 1e be 7a 39 59 be
       -0.25651363 0.29725516 -0.15520805 -0.21213332
000370 19 0d c7 3d d0 c0 07 bd 05 1f 1a 3e 53 dc 68 3e
       0.09719295 -0.033142865 0.15050896 0.22740297
000380 23 9a ee 3c a3 7e aa be 01 4a 8a be d9 99 8d be
       0.029126232 -0.3329974 -0.27009585 -0.2765644
000390 48 fe 8a bd 93 58 03 3d cc 1c 42 3e 70 59 94 3c
       -0.067867815 0.032066893 0.18956298 0.018109053
0003a0 8e 6b 59 be 40 29 5c be 11 e0 4b 3e 8d ef 2a 3d
       -0.21232435 -0.2150011 0.19909693 0.04173236
0003b0 ac 14 36 be 0a 33 f6 bd fa 6e 94 bd 9d 81 cf 3d
       -0.17781323 -0.12021454 -0.072477296 0.10132144
0003c0 62 f3 55 3e 9f d3 aa be 60 39 55 3c 2d 9a 3a 3e
       0.20893624 -0.3336458 0.013014168 0.18222876
0003d0 be 10 7b be 9b b0 89 3e ec 19 79 3d b6 a9 88 be
       -0.24518105 0.26892552 0.060815737 -0.2669198
0003e0 65 7b ed 3d 74 aa 85 3e 83 03 9a be fd af f1 bd
       0.11595801 0.26106608 -0.30080804 -0.11801145
0003f0 af af 94 3d f9 1e a8 3d fd 8f 82 be 1c 1e 93 be
       0.072600715 0.082090326 -0.2550048 -0.2873391

fc.0.weight f4 [32, 48]
000000 e5 dd e8 bf 18 b6 ef bf d4 44 bb bf ba 29 d4 bd
       -1.8192717 -1.8727446 -1.463038 -0.10359521
000010 2a c3 db 3d 01 0f 40 bf d3 f7 39 be 7e 46 12 3e
       0.10730584 -0.75022894 -0.18160944 0.14284703
000020 42 0a 1e bf 4e 00 d2 3d 20 66 ce bd 72 09 58 bf
       -0.617344 0.10253964 -0.100780725 -0.8438941
000030 7c 6f 28 bf b5 fc 20 3e e1 d3 1d bd b8 8b 10 3e
       -0.6579511 0.157214 -0.03853214 0.14115798
000040 b6 4c 90 bd da 45 6f bf 30 99 b1 3d b6 50 0e bf
       -0.070458815 -0.9346596 0.08671796 -0.55591905
000050 e5 6d 31 bf fb cc 88 bd 4e f6 1c bf e2 bd b4 bc
       -0.6930831 -0.06679722 -0.6131333 -0.0220632
000060 04 0b 6d bd ae a8 ac bd 60 01 85 bd 3a ab c1 3d
       -0.057871833 -0.084306106 -0.06494403 0.09456487
000070 5c fd 8a bf c3 53 63 3c a0 fe cd c0 9a fb 62 bc
       -1.0858569 0.013874951 -6.437332 -0.013853932
000080 32 fa 98 be 15 cb 1c be 1c 76 2c 3e 04 7a c7 bc
       -0.29878384 -0.15311845 0.1684193 -0.024350174
000090 82 28 1d bd 7f 6d c5 bc d0 21 ce 3c ce 81 96 bd
       -0.03836871 -0.024100063 0.025162607 -0.07348977
0000a0 0c c2 7f bd 14 65 89 3d 87 93 91 3b 6a ca 30 3c
       -0.062440917 0.06708732 0.0044426355 0.010790447
0000b0 ba 99 ed 3c fa 05 f6 3d 7b 5a d7 bd c5 ab a3 3d
       0.029003967 0.12012859 -0.10515305 0.07991747
0000c0 43 47 a2 bd 9b a0 f3 bd 25 e0 8c bd 83 3b e0 bd
       -0.07923748 -0.118958674 -0.0687869 -0.10948851
0000d0 93 d0 88 bd 73 45 17 be 8a fa 1d 3d 9e a1 e2 bd
       -0.066804074 -0.14772587 0.03856901 -0.11065982
0000e0 12 c2 ff bd 9d 30 8d 3c c1 f6 ef 3c 57 39 60 3d
       -0.12488188 0.017235095 0.029292466 0.054742184
0000f0 b1 74 82 3d 5f 7f b6 bd da 9e 12 3e 4b dd 97 bd
       0.06369913 -0.08911013 0.1431841 -0.07415255
000100 22 36 e5 bd 54 27 fb bd 16 25 d8 3d 0f 4b bf bc
       -0.11191966 -0.122633606 0.105539486 -0.02335122
000110 9d db d6 3d 23 55 f8 bd 45 57 c9 bd 1e 3f af 3d
       0.10491107 -0.121256135 -0.098310985 0.085569605
000120 50 fd 7b bd 11 71 ae bd 2a 13 b2 ba 6e ac 01 3d
       -0.061520875 -0.085176595 -0.0013586034 0.031658582
000130 90 7c ca 3d 60 95 9b bd 1c ea 29 bd eb 04 ff 3d
       0.0988704 -0.075968504 -0.04148303 0.1245211
000140 4a 81 32 3b 6e c0 42 bc f9 00 0e be e4 97 8f 3b
       0.0027237707 -0.011886699 -0.13867559 0.0043821204
000150 90 5c b9 bb d8 29 1e 3d 28 c0 d4 3c fd f7 a2 3d
       -0.0056567863 0.038614124 0.025970533 0.07957456
000160 3b a5 e2 bd 43 6f cf 3d 76 a8 fc 3d b6 ce 68 ba
       -0.110666715 0.10128643 0.12336819 -0.00088809
000170 d7 bb cf 3c 2f 10 7e bd c5 d0 de 3d 21 98 ee 3d
       0.025358124 -0.062027153 0.108796634 0.1165011
000180 f7 c4 fa c0 6c e1 57 c1 89 86 5e c0 43 de 02 3e
       -7.8365436 -13.492535 -3.4769614 0.12780099
000190 95 aa 12 3e a6 f7 27 bf 73 08 09 3d 9c 33 20 3d
       0.14322884 -0.65612257 0.033455323 0.03911172
0001a0 0c 59 01 bf 0f 4d d6 3d 63 21 8a 3c b0 2c 2a bf
       -0.505265 0.104639165 0.016861623 -0.6647444
0001b0 ac b5 14 bf 5b f5 0e 3d b8 78 5a bd ca ea ed bd
       -0.5808971 0.034901958 -0.053337783 -0.11617048
0001c0 18 bb e2 3d b9 2a b1 bf 11 51 f4 bc 31 16 d4 be
       0.110708416 -1.3841163 -0.029823812 -0.4142318
0001d0 69 8f 4a bf 2a 50 a5 bc 38 fe 13 bf 98 42 e6 3c
       -0.79125077 -0.020179827 -0.5780978 0.028107926
0001e0 54 ac 62 bc bf d7 75 be 37 23 e0 bd 28 ad a6 bd
       -0.013835032 -0.24008082 -0.10944217 -0.08138496
0001f0 2e 2b f1 bf e8 40 aa bd bf 79 c2 be 62 17 a1 bd
       -1.8841302 -0.08313161 -0.3798351 -0.07865788
000200 c4 73 0b 3e 56 12 a6 3d 0b 45 0d 3f 90 24 bf bc
       0.1361838 0.08108966 0.55183476 -0.023332864
000210 56 93 01 3e bf e3 7e 3d f8 b3 93 bd 89 5f 34 bc
       0.1265386 0.062228914 -0.07212061 -0.0110091055
000220 4f 94 cb bd 31 59 bf bd cc 00 b3 bc f9 ef c1 3d
       -0.09940397 -0.09343184 -0.021850966 0.09469599
000230 83 af 2f 3d 36 13 46 bd 31 2e e7 3c d1 33 03 be
       0.04289199 -0.048358165 0.028220268 -0.12812735
000240 39 24 93 3d 73 e4 c2 3f ec 13 26 bf 9e c1 d4 bd
       0.07184643 1.5225967 -0.6487415 -0.10388492
000250 9a 9d 62 bd b9 16 30 3e 5a 8f 22 3d 0d fc fb bd
       -0.05532608 0.17196168 0.039687492 -0.12303934
000260 40 92 dc bc a5 0e 19 3c c7 49 86 3d 05 2e 79 be
       -0.026925206 0.00934187 0.06557041 -0.24333961
000270 45 82 87 bd 98 26 be bd 55 0a 3b 3d bc a8 b3 3b
       -0.06616644 -0.09284705 0.04566415 0.005482761
000280 f0 13 a9 3d f5 a0 15 be 04 a2 03 bc 5f 7c b1 3c
       0.08255756 -0.14612181 -0.008034233 0.02166575
000290 76 17 dc bd 1d 62 9e 3d ca 4b 3d 3d b4 45 43 3d
       -0.10746662 0.077335574 0.046214856 0.047673896
0002a0 8a 65 2d 3c 75 ad 93 bd ce d4 5b 3c 6d e6 31 3e
       0.010583291 -0.07210819 0.013417436 0.17373057
0002b0 e1 b2 30 c0 c5 6a b1 bc b4 cd a7 bf a3 00 08 be
       -2.760918 -0.021657357 -1.3109651 -0.13281493
0002c0 d7 05 98 3f da f1 b2 3f 13 3d c4 3f b4 bc fb 3d
       1.1876782 1.3980057 1.5331138 0.12291852
0002d0 76 6d 94 bd 63 cb b7 bd 80 e5 84 3d 6b a9 36 bd
       -0.072474405 -0.0897434 0.06489086 -0.044595163
0002e0 03 6d 32 3d 78 64 26 bc 18 89 8a bd dc ad a1 bd
       0.043560993 -0.01015579 -0.0676443 -0.07894489
0002f0 29 f5 05 bd d8 4c 69 bd 97 a0 dc 3c 91 7d 25 bd
       -0.032704506 -0.05695805 0.026932044 -0.040402953
000300 b4 1c 40 bc a5 3e 11 bb 46 2e 20 be 43 a1 11 be
       -0.011725593 -0.0022162583 -0.15642652 -0.14221673
000310 8e 4b ff bd bf d2 8e 3d 39 7a a9 bd bf db 01 3e
       -0.12465583 0.069737904 -0.08275265 0.12681483
000320 34 5b 51 bd 9d 42 d0 3d cc 2e c4 bc f9 ef a2 bd
       -0.05111237 0.101689555 -0.023948096 -0.079559274
000330 4b a8 36 bd 9b 0d b6 3d 8d 63 5a bd 70 ca f4 bb
       -0.04459409 0.08889314 -0.053317595 -0.0074704215
000340 b5 dd 75 3d e7 46 0a bd 52 ad a0 bc a4 5a 07 be
       0.06002589 -0.033759024 -0.019613896 -0.1321817
000350 e4 dc 69 3c 3f c5 89 bc 50 f4 26 bd 63 91 1a be
       0.014273856 -0.016817687 -0.04076034 -0.15094523
000360 7d 50 35 bd af 91 be 3d aa b0 86 3d e4 51 d1 bd
       -0.044266213 0.09305131 0.06576665 -0.102206975
000370 c2 11 cd bd f7 87 b4 3d bc e6 b8 3d aa f5 c6 bc
       -0.10013153 0.08814996 0.09028384 -0.024287064
000380 aa 92 0c be 95 35 68 3d 3e c6 98 bd cc 57 b4 3d
       -0.13727823 0.056691725 -0.07459687 0.088058084
000390 41 25 0f 3e cd 9f 0f 3e 8a 40 32 3c a7 b5 01 3e
       0.13979055 0.14025803 0.010879645 0.12666951
0003a0 b9 0e a7 bd e8 b1 d6 bd fb fc 81 3d 65 27 f1 bd
       -0.08157105 -0.10483152 0.0634708 -0.11775092
0003b0 65 6d d1 bc c7 ac fa 3d 52 e5 b5 bc f8 99 d2 3d
       -0.025564859 0.12239986 -0.022204075 0.102832735
0003c0 81 57 1f be de a6 00 3d e4 be a4 3d e8 9d bf 3d
       -0.15560724 0.031409137 0.08044222 0.0935629
0003d0 e0 fb 11 be 36 48 6a bd 0c 2c 85 3d dc f6 52 bc
       -0.14256239 -0.057197772 0.06502542 -0.012876239
0003e0 d5 d1 c0 bd a9 b5 0d bd cb 4c 12 3e 57 44 94 bd
       -0.09415022 -0.034597073 0.14287107 -0.07239597
0003f0 78 ac b8 3b eb 00 10 be 91 90 d0 bd 56 e5 33 bd
       0.0056357943 -0.1406285 -0.10183824 -0.043919884

fc.0.bias f4 [32]
000000 a6 b7 42 be 3b ff de bc 51 19 85 3f 45 b1 10 40
       -0.19015369 -0.027221313 1.0398351 2.2608197
000010 45 64 8a bd 8b 3b 45 bd 3d a2 35 40 85 0c 10 40
       -0.06757406 -0.048152488 2.8380272 2.2507641
000020 54 e6 23 40 33 37 cf 39 66 77 3b be f5 f1 27 be
       2.560933 0.00039523243 -0.18307266 -0.16400893
000030 eb 32 02 3d bc c8 45 bd 4f a5 af bd 81 28 4a bd
       0.03178684 -0.04828714 -0.08576452 -0.049355034
000040 3d 5b 3f 40 77 6c 2c bd 04 0c 24 be 95 e7 55 3e
       2.9899437 -0.042095628 -0.16020209 0.20889123
000050 67 63 2e 40 b0 5c ee bd e4 e7 1d be 87 c8 e2 bd
       2.724817 -0.116387725 -0.1542049 -0.11073404
000060 87 16 02 be 42 47 00 bd b4 77 1b be f9 5a 1f 40
       -0.12703906 -0.031317957 -0.15182382 2.4899275
000070 09 fc 49 bd b6 ab 8b bd 32 2a 02 be e3 56 69 bc
       -0.049312625 -0.06819861 -0.12711409 -0.014241907

fc.2.weight f4 [1, 32]
000000 d4 f2 1f bd bc 27 7a 3c cc 85 0d 40 93 a8 5a bf
       -0.03904994 0.0152682625 2.2112913 -0.85413474
000010 31 3a 99 3d 8f 90 83 bd d7 cc 97 bf 7b a3 5b bf
       0.07481802 -0.06424057 -1.1859387 -0.85796326
000020 a2 ef 80 bf 48 54 d5 3c 63 01 90 3d 89 3a fd bc
       -1.007313 0.026041165 0.070315145 -0.0309117
000030 bc 10 a9 3d 24 70 ce 3d df 10 4f 3d 7f c3 dd bc
       0.08255145 0.10079983 0.0505532 -0.027070759
000040 bf 1c b1 bf 76 cc e8 bd 36 cd 3e 3c 4e 62 e5 bb
       -1.3836898 -0.11367123 0.011645606 -0.007000244
000050 9c 83 92 bf 99 ba 3d 3d 17 ee b1 bd 3b b8 7d 3b
       -1.1446414 0.04632053 -0.0868799 0.0038714546
000060 1f 65 17 3d dd 37 f8 bc 4f 1d 52 3d 4e 6e 7d bf
       0.03696167 -0.030300075 0.051297482 -0.98996437
000070 a1 31 0b 3d 0c 31 c4 bc 2f 6e dd bb ff 82 cc bc
       0.033982877 -0.023949169 -0.0067575197 -0.024964808

gcn1.bias f4 [32]
000000 1a 48 0a 3e 00 00 00 00 b6 d2 cb 3e 6e 3f aa 3e
       0.13504067 0.0 0.39809197 0.33251518
000010 f5 9b 20 3e e3 15 83 3e 63 b1 b9 3e 42 9b ce be
       0.15684493 0.25602636 0.36268148 -0.40352827
000020 00 00 00 00 b5 c0 61 3d 07 b7 ab bc 9b 34 55 3e
       0.0 0.05511542 -0.020961298 0.20820849
000030 d2 02 9c 3e 00 00 00 00 00 00 00 00 c0 f3 a3 3e
       0.30470902 0.0 0.0 0.32021904
000040 c7 01 5e 3d 34 fb b3 3e d6 fd b5 3c 38 46 d4 3c
       0.054200914 0.3515259 0.022215765 0.02591239
000050 ed 28 0b bb d5 eb 3d 3f 3e ed 27 3e 56 c8 9a 3e
       -0.002123411 0.74187976 0.16399094 0.3023097
000060 3d 94 b0 3e 4b 53 ad 3e b6 38 49 3e 39 5c 20 3b
       0.34488097 0.3385261 0.1965054 0.0024469031
000070 5e b8 e1 3d 00 00 00 00 00 00 00 00 9a 93 b0 3e
       0.110214934 0.0 0.0 0.3448761
