MRTE/drlte/lib/checkpoints/agent1_ep60.pt (torch, 161755 bytes, 28 tensors)

gcn1.bias f4 [64]
0	0x00000000	0.0
1	0x00000000	0.0
2	0x00000000	0.0
3	0x00000000	0.0
4	0x00000000	0.0
5	0x00000000	0.0
6	0x00000000	0.0
7	0x00000000	0.0
8	0x00000000	0.0
9	0x00000000	0.0
10	0x00000000	0.0
11	0x00000000	0.0
12	0x00000000	0.0
13	0x00000000	0.0
14	0x00000000	0.0
15	0x00000000	0.0
16	0x00000000	0.0
17	0x00000000	0.0
18	0x00000000	0.0
19	0x00000000	0.0
20	0x00000000	0.0
21	0x00000000	0.0
22	0x00000000	0.0
23	0x00000000	0.0
24	0x00000000	0.0
25	0x00000000	0.0
26	0x00000000	0.0
27	0x00000000	0.0
28	0x00000000	0.0
29	0x00000000	0.0
30	0x00000000	0.0
31	0x00000000	0.0
32	0x00000000	0.0
33	0x00000000	0.0
34	0x00000000	0.0
35	0x00000000	0.0
36	0x00000000	0.0
37	0x00000000	0.0
38	0x00000000	0.0
39	0x00000000	0.0
40	0x00000000	0.0
41	0x00000000	0.0
42	0x00000000	0.0
43	0x00000000	0.0
44	0x00000000	0.0
45	0x00000000	0.0
46	0x00000000	0.0
47	0x00000000	0.0
48	0x00000000	0.0
49	0x00000000	0.0
50	0x00000000	0.0
51	0x00000000	0.0
52	0x00000000	0.0
53	0x00000000	0.0
54	0x00000000	0.0
55	0x00000000	0.0
56	0x00000000	0.0
57	0x00000000	0.0
58	0x00000000	0.0
59	0x00000000	0.0
60	0x00000000	0.0
61	0x00000000	0.0
62	0x00000000	0.0
63	0x00000000	0.0

gcn1.lin.weight f4 [64, 6]
0	0xbe30b302	-0.17255786
1	0x3e7c1c4b	0.24620168
2	0xbe352431	-0.17689587
3	0x3e8ff555	0.2811686
4	0x3e8bd71a	0.27312547
5	0x3c9b2173	0.018936848
6	0xbe1c4143	-0.1525927
7	0xbe040ece	-0.12896273
8	0x3e7df340	0.24799824
9	0x3ddc40fb	0.107545815
10	0xbe2a5d96	-0.16637263
11	0x3c47c0d3	0.012191969
12	0xbe1e999f	-0.1548829
13	0x3e7cf862	0.24704126
14	0x3d5df8cc	0.05419235
15	0xbe957d2e	-0.29197067
16	0x3e784d65	0.24248274
17	0xbe38e9f3	-0.18057995
18	0xbe1d2ab3	-0.1534832
19	0xbe908aed	-0.28230992
20	0xbd9e1144	-0.07718137
21	0xbdb86443	-0.090034984
22	0x3e869bc6	0.2629072
23	0x3deb3c3c	0.11486098
24	0x3e4a4aeb	0.19755141
25	0xbe545ac6	-0.20737752
26	0xbd0ddf00	-0.034636497
27	0xbe864626	-0.26225394
28	0x3da0face	0.07860337
29	0x3ca2a137	0.019852264
30	0xbe798bc2	-0.2436972
31	0x3d59620e	0.053072028
32	0x3e3cca81	0.18436624
33	0x3e219017	0.15777622
34	0x3e83cc64	0.25741875
35	0x3e244398	0.1604141
36	0x3e037c25	0.12840326
37	0x3e204a2c	0.15653294
38	0xbe8c590f	-0.27411696
39	0x3dea1bac	0.11431059
40	0xbe29010b	-0.16504304
41	0xbdaae64f	-0.08344709
42	0xbe4f86ca	-0.20266262
43	0x3d3c5a46	0.04598453
44	0xbdb03080	-0.08603001
45	0x3e8c0918	0.27350688
46	0xbdd8c3a6	-0.10584192
47	0xbd641853	-0.05568726
48	0xbdc6d820	-0.09709191
49	0x3e8cd103	0.27503213
50	0x3ccf240b	0.025285741
51	0x3e67f82f	0.22653268
52	0xbdeec38a	-0.1165839
53	0x3e56b031	0.20965649
54	0xbdfce945	-0.1234918
55	0xbe67a2c9	-0.22620691
56	0x3cdc1a02	0.02686787
57	0x3d5f7ded	0.05456345
58	0x3e842096	0.2580611
59	0xbe4db017	-0.20086704
60	0xbdeec923	-0.116594575
61	0xbc4cbfa5	-0.0124968635
62	0x3e691a09	0.22763838
63	0xbd73aac1	-0.059489015
64	0x3d3fc992	0.04682309
65	0x3e6a1acb	0.22861783
66	0xbc7fe639	-0.015618854
67	0x3e5b1ac7	0.21396933
68	0xbd055392	-0.032550402
69	0xbe713684	-0.23555952
70	0xbe851e7a	-0.25999814
71	0xbe1bcf3a	-0.1521577
72	0xbe7d799b	-0.2475342
73	0xbd4bcf2b	-0.049758118
74	0xbd9c1639	-0.07621426
75	0xbe346663	-0.17617182
76	0xbe318857	-0.17337166
77	0xbda6f7e9	-0.08152754
78	0xbcc2ab2b	-0.02376326
79	0x3e64ad64	0.22331768
80	0x3e0ea172	0.13928774
81	0x3e219281	0.15778543
82	0xbe949184	-0.2901727
83	0x3e45238f	0.19251846
84	0xbe05eaf8	-0.13077915
85	0x3e857f90	0.26073885
86	0xbd0f0261	-0.034914378
87	0x3e0c94d4	0.13728648
88	0x3d96c3ac	0.0736154
89	0x3d9a7094	0.07541004
90	0x3e75902f	0.23980783
91	0xbdd1b610	-0.10239804
92	0x3e09e2ae	0.13465378
93	0xbe46d69b	-0.19417803
94	0x3e864fd0	0.26232767
95	0xbe0d024c	-0.13770407
96	0xbe2e2bb7	-0.17008863
97	0x3db0e789	0.08637912
98	0x3da5c3b3	0.08093967
99	0x3e9418e6	0.28925246
100	0xbe107bd1	-0.14109732
101	0xbd5cfe1d	-0.05395328
102	0x3da76dce	0.081752405
103	0xbc7b7439	-0.015347534
104	0xbdee1b6f	-0.11626326
105	0x3e2c1f64	0.1680885
106	0x3e83319c	0.25623786
107	0x3e11b6d4	0.142299
108	0xbd7a7f5c	-0.061156616
109	0xbd62d92b	-0.05538289
110	0x3dad185b	0.08451911
111	0x3e047ec5	0.12938984
112	0x3dd48af6	0.10378067
113	0x3da49d69	0.08037836
114	0x3d749065	0.059708018
115	0xbe8cc7b5	-0.27496114
116	0x3dc2afb5	0.0950617
117	0xba5e9413	-0.00084906927
118	0x3e80e089	0.25171307
119	0xbe7f208e	-0.24914762
120	0xbe6dd438	-0.23225486
121	0x3e94f681	0.29094318
122	0xbaf969a1	-0.0019028672
123	0x3e88576c	0.26629198
124	0x3e7814fe	0.24226758
125	0x3e47425b	0.19458906
126	0x3e212248	0.15735734
127	0x3d431e31	0.047636215
128	0x3da67df4	0.081294924
129	0xbe671743	-0.22567467
130	0xbd6b9c56	-0.05752214
131	0xbdf071d6	-0.117404625
132	0xbdf20acd	-0.11818466
133	0xbdfdb416	-0.12387864
134	0xbdff4f0b	-0.12466248
135	0xbe91db1f	-0.2848749
136	0x3e6115bc	0.21980947
137	0xbcc8bcf9	-0.024504172
138	0xbb953600	-0.0045535564
139	0x3e3fb0b6	0.18719754
140	0x3c9723af	0.018449632
141	0x3d07c36d	0.033145357
142	0x3dfc379d	0.12315295
143	0x3deed2e9	0.11661322
144	0xbdf0d9ae	-0.11760269
145	0x3e3543e0	0.17701674
146	0xbe5c2b30	-0.2150085
147	0x3c8c8124	0.017151423
148	0x3e819148	0.25306153
149	0xbdbdee92	-0.09274019
150	0x3ddf7c3e	0.10912369
151	0xbe113ba7	-0.14182912
152	0xbca5d0f2	-0.020241234
153	0x3e12b282	0.14325908
154	0x3e0d81a2	0.13818982
155	0xbd80f29c	-0.06296274
156	0x3e29b485	0.16572769
157	0x3b981318	0.004640948
158	0x3e2cb9df	0.16867779
159	0xbe8b1162	-0.271617
160	0xbb5d9d90	-0.0033815838
161	0xbe514ec1	-0.20440198
162	0xbe1bb8e7	-0.15207253
163	0xbd72117f	-0.059098717
164	0xbdee767c	-0.11643693
165	0x3e60368b	0.21895806
166	0x3e44693d	0.1918077
167	0xbd090fcb	-0.033462327
168	0xbe834db6	-0.25645226
169	0x3d720f69	0.059096728
170	0xbe5f560d	-0.2181017
171	0xbe87ae6c	-0.2650026
172	0x3e0a8130	0.13525844
173	0x3e3c4442	0.18385413
174	0x3df84052	0.12121643
175	0xbe7cf736	-0.24703678
176	0x3e694ca6	0.22783145
177	0x3e86d2b0	0.26332617
178	0x3e0ab193	0.13544302
179	0xbe8edfdc	-0.27905166
180	0xbe923668	-0.28557134
181	0xbda11ce0	-0.078668356
182	0x3d3037df	0.043022033
183	0xbe42f4ba	-0.19038668
184	0x3d6f09bb	0.05835889
185	0x3e267fea	0.16259733
186	0x3e719a78	0.23594081
187	0x3c985924	0.018597193
188	0x3d17e5c0	0.03708434
189	0x3e77fda0	0.24217844
190	0x3dc68525	0.09693364
191	0xbd936cf3	-0.07198515
192	0x3e709634	0.23494798
193	0x3cb887e8	0.022525743
194	0xbe051ff3	-0.13000469
195	0xbe5f6323	-0.21815161
196	0x3cb969da	0.022633482
197	0xbd873f92	-0.06603922
198	0x3e8e708e	0.27820247
199	0x3e7fadcd	0.24968643
200	0xbe6c9590	-0.23103929
201	0xbe53d13a	-0.20685282
202	0x3e1ec73d	0.15505691
203	0x3d667307	0.056262042
204	0xbd380e69	-0.044935618
205	0x3e878ac2	0.2647305
206	0xbe6e7e80	-0.23290443
207	0xbb8583bb	-0.0040745414
208	0x3d8ba97a	0.068194345
209	0xbe239242	-0.15973762
210	0x3d50c29b	0.05096684
211	0xbd52dbbb	-0.051479083
212	0x3dc0d20d	0.09415064
213	0xbe8f837f	-0.2803001
214	0x3e61b0cd	0.220401
215	0x3e7f6925	0.24942453
216	0xbe94d49c	-0.29068458
217	0x3e3b15c1	0.18270017
218	0x3e081604	0.13289648
219	0xbd981fec	-0.074279636
220	0xbe85b11a	-0.2611168
221	0xbe373854	-0.17892581
222	0xbe2375e7	-0.15962945
223	0xbe2a9273	-0.16657428
224	0xbd7f99f4	-0.06240268
225	0xbe4f93aa	-0.20271173
226	0xbe795ed3	-0.24352579
227	0xbe39e2ec	-0.1815297
228	0x3e451947	0.19247924
229	0xbe0bb88a	-0.13644615
230	0x3e5b537e	0.21418568
231	0x3cef95db	0.029246261
232	0x3e500a06	0.20316324
233	0xbdecd313	-0.11563697
234	0xbdca103d	-0.098663785
235	0xbe54c9da	-0.20780125
236	0x3e957733	0.29192504
237	0x3e14183f	0.14462374
238	0x3d86bec5	0.06579355
239	0x3dde83b7	0.10864966
240	0xbdea1c2f	-0.11431157
241	0x3e5d7a96	0.21628794
242	0x3e0e1fd7	0.13879333
243	0xbdf4b020	-0.11947656
244	0x3e87460b	0.26420626
245	0xbe3d92e8	-0.18513072
246	0xbe01df50	-0.12682843
247	0xbe8d5fe0	-0.2761221
248	0x3d9f1454	0.07767549
249	0xbe8bfd67	-0.27341768
250	0xbd7b09c4	-0.06128861
251	0xbe628ad5	-0.22123273
252	0x3e422214	0.18958312
253	0xbe805477	-0.25064442
254	0x3c8855d9	0.016642498
255	0x3e6c392b	0.23068683

gcn2.bias f4 [64]
0	0x00000000	0.0
1	0x00000000	0.0
2	0x00000000	0.0
3	0x00000000	0.0
4	0x00000000	0.0
5	0x00000000	0.0
6	0x00000000	0.0
7	0x00000000	0.0
8	0x00000000	0.0
9	0x00000000	0.0
10	0x00000000	0.0
11	0x00000000	0.0
12	0x00000000	0.0
13	0x00000000	0.0
14	0x00000000	0.0
15	0x00000000	0.0
16	0x00000000	0.0
17	0x00000000	0.0
18	0x00000000	0.0
19	0x00000000	0.0
20	0x00000000	0.0
21	0x00000000	0.0
22	0x00000000	0.0
23	0x00000000	0.0
24	0x00000000	0.0
25	0x00000000	0.0
26	0x00000000	0.0
27	0x00000000	0.0
28	0x00000000	0.0
29	0x00000000	0.0
30	0x00000000	0.0
31	0x00000000	0.0
32	0x00000000	0.0
33	0x00000000	0.0
34	0x00000000	0.0
35	0x00000000	0.0
36	0x00000000	0.0
37	0x00000000	0.0
38	0x00000000	0.0
39	0x00000000	0.0
40	0x00000000	0.0
41	0x00000000	0.0
42	0x00000000	0.0
43	0x00000000	0.0
44	0x00000000	0.0
45	0x00000000	0.0
46	0x00000000	0.0
47	0x00000000	0.0
48	0x00000000	0.0
49	0x00000000	0.0
50	0x00000000	0.0
51	0x00000000	0.0
52	0x00000000	0.0
53	0x00000000	0.0
54	0x00000000	0.0
55	0x00000000	0.0
56	0x00000000	0.0
57	0x00000000	0.0
58	0x00000000	0.0
59	0x00000000	0.0
60	0x00000000	0.0
61	0x00000000	0.0
62	0x00000000	0.0
63	0x00000000	0.0

gcn2.lin.weight f4 [64, 64]
0	0x3cc39cba	0.023878444
1	0xbcb4901b	-0.022041371
2	0x3de7a24d	0.11310253
3	0xbe17ba06	-0.14817056
4	0x3e591410	0.2119906
5	0xbda8338e	-0.08212958
6	0xbc605371	-0.013691769
7	0xbd99fb6b	-0.07518657
8	0x3e099e9c	0.13439411
9	0x3e117995	0.14206536
10	0xbe023e96	-0.12719187
11	0x3e315ae9	0.17319836
12	0x3db3cda4	0.08779457
13	0x3e25e0ab	0.16198985
14	0xbc768747	-0.015046901
15	0x3db5215b	0.08844253
16	0x3d492c0a	0.049114265
17	0xbd8e7000	-0.06954956
18	0xbe1cc508	-0.15309536
19	0x3d43b1b4	0.047776893
20	0xbe3b2c2d	-0.1827857
21	0x3dcb2152	0.09918465
22	0x3e4a3599	0.19747008
23	0xbdcdd6e2	-0.10050751
24	0x3e0ea36a	0.13929525
25	0xbe089f9d	-0.13342138
26	0x3e1d0513	0.15333967
27	0xbde358a1	-0.11100889
28	0x3cec183d	0.028820151
29	0x3dd09f79	0.10186667
30	0x3e51dce6	0.20494422
31	0x3d0f239e	0.034946077
32	0xbddbcce0	-0.10732436
33	0xbe557925	-0.20846994
34	0xbdf80dd7	-0.12112015
35	0x3dfed5bc	0.1244311
36	0xbccea70e	-0.025226142
37	0xbe1dcdf9	-0.15410604
38	0x3e012da7	0.12615071
39	0xbdaabd74	-0.083369166
40	0x3d58fef4	0.052977517
41	0xbd8fbbfc	-0.07018277
42	0xbe1b4f57	-0.15166984
43	0x3e27683c	0.16348356
44	0x3e0fc078	0.14038265
45	0xbe19475a	-0.14968625
46	0x3def6c0a	0.11690529
47	0x3c8022d3	0.015641605
48	0xbe0390ad	-0.12848158
49	0x3dfc0d02	0.123071685
50	0xbe1bf393	-0.15229635
51	0xbdde091a	-0.1084158
52	0x3d22cee8	0.039748102
53	0x3e3a0548	0.18166077
54	0xbe55185c	-0.20810074
55	0xbdec02b9	-0.11523957
56	0x3d012dd4	0.031537846
57	0xbe45fb63	-0.19334178
58	0xbd919938	-0.07109302
59	0x3d9b25a1	0.075755365
60	0x3e560f20	0.20904207
61	0x3e439031	0.19097973
62	0xbcc62e34	-0.024191953
63	0x3b456b82	0.0030123894
64	0x3e13d73d	0.14437576
65	0x3cf32d35	0.029684642
66	0x3da03fd7	0.078246765
67	0xbc424fa2	-0.011859806
68	0x3c2a220a	0.010384092
69	0xbd82680c	-0.063675016
70	0xbdb7a7e2	-0.08967568
71	0xbe1d59a1	-0.15366222
72	0x3d9d858a	0.07691486
73	0x3e3e793a	0.18600932
74	0xbd228cf4	-0.039685205
75	0xbe1199f0	-0.14218879
76	0x3e207a2e	0.15671608
77	0xbdab7964	-0.08372763
78	0x3c28efcb	0.010311077
79	0xbe10b55e	-0.14131686
80	0x3e5afa11	0.21384455
81	0xbe5d42fe	-0.21607587
82	0xbe525b12	-0.20542553
83	0x3e489b8d	0.19590588
84	0xbd86e574	-0.065867335
85	0xbe04b2e3	-0.12958865
86	0xbe14a52f	-0.14516138
87	0x395d8a45	0.00021127712
88	0x3d35fac8	0.044428617
89	0x3e0c05e7	0.13674127
90	0x3d0bef77	0.03416392
91	0xbd037256	-0.03209146
92	0xbd3fdc9a	-0.04684124
93	0x3ddda4a5	0.10822419
94	0x3daaeb6b	0.08345684
95	0xbdb712fe	-0.08939169
96	0x3d83bba0	0.06432271
97	0x3d8ff312	0.07028784
98	0x3c840a00	0.01611805
99	0xbe4a9d90	-0.19786668
100	0x3db68585	0.089121856
101	0x3d33b6ae	0.04387539
102	0xbdf87ff4	-0.1213378
103	0x3e3ffe55	0.18749364
104	0x3d8c749a	0.068581775
105	0x3d9a4ecd	0.07534561
106	0xbc65f7c2	-0.014036121
107	0xbd8a82ec	-0.067632526
108	0x3ddc62c4	0.107610255
109	0x3dfc39cc	0.123157114
110	0xbe0810bf	-0.13287638
111	0x3e265de2	0.16246751
112	0x3de35fa3	0.11102226
113	0xbe5dadb4	-0.21648294
114	0x3e58ea76	0.2118319
115	0x3d2908e8	0.04126826
116	0xbe384346	-0.17994413
117	0x3de31bd1	0.1108929
118	0x3e077700	0.13228989
119	0xbd811d2f	-0.063043945
120	0x3e5c3d03	0.21507649
121	0x3e3d4374	0.18482763
122	0xbc2eb8ce	-0.010664178
123	0x3e3eda1c	0.1863789
124	0x3d2be58a	0.041966952
125	0xbdbac7f8	-0.09120172
126	0xbe540c26	-0.2070776
127	0x3e54b897	0.2077354
128	0x3dd12a48	0.10213143
129	0xbe10f53c	-0.1415605
130	0xbe50a830	-0.20376658
131	0x3cebcda6	0.028784584
132	0xbe512c2b	-0.20427005
133	0x3e557404	0.20845038
134	0xbdf6dcdd	-0.12053845
135	0xbd8bc1d6	-0.06824081
136	0xbe2c1a9c	-0.16807026
137	0xbdc87058	-0.09787053
138	0x3dc3f995	0.09569088
139	0xbe52c375	-0.20582373
140	0xbe4af4a3	-0.19819884
141	0xbd0fb298	-0.03508243
142	0x3d10e809	0.035377536
143	0x3c1007e6	0.008790946
144	0xbca866be	-0.020556804
145	0x3e1aa4c3	0.15101914
146	0x3dc3da37	0.095631056
147	0x3d7faba1	0.062419537
148	0xbd660959	-0.05616126
149	0x3e3a9dc0	0.1822424
150	0x3c025eff	0.007957219
151	0x3de6d715	0.112714924
152	0xbdac619f	-0.08417057
153	0x3e48cf88	0.19610417
154	0xbe2b784c	-0.16745108
155	0xbe3b5d4f	-0.18297313
156	0xbcf69105	-0.030098448
157	0xbdf8c543	-0.12147
158	0x3c9ca402	0.019121174
159	0x3d000668	0.03125611
160	0xbd7f1112	-0.06227214
161	0xbc85481a	-0.016269732
162	0x3e20db6a	0.157087
163	0x3e04b2ec	0.12958878
164	0x3d85c5e1	0.06531883
165	0x3e4f3a8d	0.20237179
166	0x3a8f1e12	0.0010918996
167	0x3e354861	0.17703392
168	0x3da59a5d	0.08086083
169	0x3e15f58f	0.14644454
170	0x3de675d8	0.11252946
171	0xbd82db4f	-0.06389486
172	0xbdacb2de	-0.08432554
173	0x3ce330a4	0.027733155
174	0x3db9c260	0.09070277
175	0xbd15c206	-0.03656199
176	0xbe2ed949	-0.17075075
177	0x3e2a350a	0.16621795
178	0x3df4f388	0.119605124
179	0x3c657c06	0.01400662
180	0xbd8ae7ca	-0.067824915
181	0xbda51892	-0.08061327
182	0x3de62ad3	0.11238637
183	0xbce6d9ae	-0.02817997
184	0xbe1196b9	-0.14217652
185	0xbd1ff980	-0.0390563
186	0x3e21148d	0.15730496
187	0xbe10c0cb	-0.14136045
188	0xbd1ab7ac	-0.03777282
189	0xbcb2b62c	-0.021815382
190	0x3c9c13fa	0.019052494
191	0x3d5e63c7	0.054294374
192	0xbe403c15	-0.1877292
193	0x3dc01616	0.093792126
194	0xbd51624a	-0.051119126
195	0x3d922bcb	0.07137259
196	0x3cc74240	0.024323583
197	0xbe40953c	-0.18806928
198	0xbc60656a	-0.013696054
199	0x3d51e161	0.05124033
200	0x3d1c1d57	0.03811392
201	0x3e313c4d	0.17308159
202	0xbe377815	-0.17916901
203	0x3dbe4ff0	0.092925906
204	0x3e09bde0	0.13451338
205	0xbd680d11	-0.056653086
206	0xbb9a9c64	-0.0047183502
207	0xbbae508e	-0.0053196615
208	0x3d4b7858	0.049675316
209	0xbe3076d4	-0.1723283
210	0x3db730f0	0.08944881
211	0x3d24e0ac	0.040253326
212	0x3da73c8f	0.081658475
213	0xbdb31303	-0.087438606
214	0x3e23c05d	0.1599135
215	0xbda70d4f	-0.08156835
216	0x3d996303	0.07489588
217	0x3cf8fca9	0.030393915
218	0xbd42b9b8	-0.047540396
219	0x3e2ceced	0.16887255
220	0xba1c3220	-0.0005958397
221	0x3e1af6a6	0.15133151
222	0x3dbf9797	0.09355085
223	0x3b46655c	0.0030272817
224	0xbe37318c	-0.17889994
225	0x3e570b7b	0.21000473
226	0xbdc59749	-0.09647996
227	0x3e038bc8	0.12846291
228	0x3e4b00c2	0.19824508
229	0xbe4b99cd	-0.19882889
230	0x3e57828a	0.2104589
231	0x3e170bd5	0.14750607
232	0xbde489f8	-0.11159128
233	0xbe3dc134	-0.18530732
234	0xbdf15d0f	-0.11785328
235	0x3d0fa15b	0.03506599
236	0x3e0a2182	0.13489345
237	0xbd0066b9	-0.031347964
238	0x3e3ceee5	0.18450506
239	0xbcfdde10	-0.030989677
240	0x3d9dc584	0.07703689
241	0x3e1b7873	0.15182666
242	0x3d8bb644	0.06821874
243	0xbe30074d	-0.17190285
244	0x38a87123	8.0319376e-05
245	0x3d3eda03	0.04659463
246	0x3e483b8c	0.19553965
247	0xbd5d8b1c	-0.054087743
248	0x3dbda7d5	0.09260527
249	0xbdb71679	-0.08939833
250	0xbdd3222c	-0.10309252
251	0xbd5ece92	-0.05439622
252	0xbd358b48	-0.044322282
253	0xbcb87b2e	-0.022519674
254	0xbe2bb4a8	-0.16768134
255	0xbbf6ff1d	-0.007537736

mlp.0.weight f4 [64, 64]
0	0xbde7bc30	-0.11315191
1	0x3d8c272a	0.068434075
2	0xbbac6180	-0.0052606463
3	0xbddee1c0	-0.10882902
4	0xbc168a20	-0.009188205
5	0xbb76c140	-0.0037651807
6	0xbd7007cc	-0.058601186
7	0x3cb27ce8	0.021788076
8	0x3dbca054	0.09210268
9	0xbc7da3b0	-0.015480921
10	0x3d9cb920	0.07652497
11	0x3dd3c8b8	0.103410184
12	0x3ded5168	0.11587793
13	0xbd4ceda4	-0.05003132
14	0x3d190634	0.03735943
15	0xbda58932	-0.080828086
16	0x3d708230	0.058717906
17	0x3d02cd30	0.031933963
18	0x3d9509fc	0.07277295
19	0xbd61a480	-0.05508852
20	0x3d12234c	0.035678193
21	0x3cd66530	0.026171297
22	0xbd984b4c	-0.07436237
23	0xbc809ce8	-0.015699819
24	0xbd52d72c	-0.051474735
25	0xbddddb56	-0.10832851
26	0xbdbfa68c	-0.09357938
27	0xbd1af524	-0.03783144
28	0xbdc075f0	-0.09397495
29	0xb8fdb000	-0.00012096763
30	0x3cf68428	0.030092314
31	0x3db37ae2	0.087636724
32	0xbcac9308	-0.021066204
33	0x3db25dcc	0.087092966
34	0x3de15d78	0.11004156
35	0xbddedac4	-0.1088157
36	0x3baabe80	0.0052106977
37	0xbd97db02	-0.07414819
38	0x3de6ab9c	0.11263201
39	0x3b6e7700	0.0036386847
40	0xbd959502	-0.073038116
41	0xbda5ea7a	-0.081013635
42	0x3db06f3c	0.08614966
43	0x3dd8cbc8	0.10585743
44	0xbd3b57dc	-0.045738086
45	0xbc646600	-0.013940334
46	0x3d2c4768	0.042060286
47	0xbdd5f7ca	-0.10447653
48	0xbd247d10	-0.04015833
49	0x3c8ab4e8	0.016931966
50	0x3d8544b0	0.06507242
51	0xbde38984	-0.111102134
52	0xbd314ba0	-0.043285012
53	0x3df17742	0.11790325
54	0xbc365c20	-0.011130363
55	0x3cb11a80	0.021619081
56	0xbc921538	-0.017832384
57	0xbdc46e00	-0.09591293
58	0x3d3b1460	0.045673728
59	0x3db72648	0.089428484
60	0xbd3247c8	-0.043525487
61	0x3d58b34c	0.052905366
62	0x3cee5390	0.02909258
63	0xbd9ca66c	-0.0764893
64	0x3ddfbcfc	0.10924718
65	0x3d87bed8	0.066281974
66	0xbce5cea0	-0.028052628
67	0x3dd7d35e	0.10538362
68	0xbdf9dcf4	-0.122003466
69	0xbdaa09ce	-0.08302651
70	0x3d6c1c34	0.057644084
71	0xbdcbed34	-0.09957352
72	0x3de91108	0.113802016
73	0x3d1b8ed4	0.03797801
74	0xbd4ab314	-0.04948719
75	0x3df2598c	0.11833486
76	0xbda5225e	-0.08063196
77	0xbdb29c7a	-0.08721252
78	0xbd44c258	-0.048036903
79	0x3dd92334	0.106024176
80	0xbd86754a	-0.0656534
81	0xbd4b2de4	-0.04960431
82	0x3bc5fa20	0.00604178
83	0xbda61e4e	-0.08111249
84	0xbdf58c60	-0.11989665
85	0xbd875490	-0.06607926
86	0xbd80f118	-0.06295985
87	0x3c6d3150	0.014477089
88	0xbd7fbbf8	-0.06243512
89	0x3d1369d0	0.035989583
90	0x3d3b0594	0.045659617
91	0xbdb6a50a	-0.089181975
92	0x3dc16512	0.09443106
93	0xbddd938a	-0.108191565
94	0xbd0bdd54	-0.03414662
95	0x3d4b6d7c	0.04966496
96	0xbc576430	-0.013146445
97	0xbd20dadc	-0.03927122
98	0xbdd7849c	-0.1052334
99	0x3dc10a52	0.094257966
100	0x3df156f2	0.117841616
101	0xbdea1786	-0.11430268
102	0xbb610cc0	-0.0034339875
103	0xbddca8a8	-0.10774356
104	0x3d4c47d4	0.04987319
105	0xbc5f3420	-0.013623267
106	0x3c92be08	0.01791288
107	0x3c39df70	0.011344776
108	0x3d929e90	0.0715915
109	0xbdf45df0	-0.1193198
110	0xbdddfa78	-0.10838789
111	0xbd43c4bc	-0.047795042
112	0x3cf12bf8	0.029439911
113	0xbdd33df6	-0.103145525
114	0xbdea01de	-0.114261374
115	0x3d3f7638	0.0467436
116	0x3d47cff8	0.04878232
117	0x3d8d24f0	0.06891811
118	0x3deace20	0.114650965
119	0xbdc0edce	-0.09420358
120	0x3ce2d448	0.027689114
121	0x3cb3e350	0.021958977
122	0x3d669d28	0.05630222
123	0xbcb151a0	-0.021645367
124	0x3db22a58	0.08699483
125	0xba344300	-0.0006876439
126	0xbd5ce198	-0.05392608
127	0x3d5ea818	0.054359525
128	0x3d94069a	0.07227822
129	0xbcda02d0	-0.02661267
130	0xbdd1d846	-0.10246329
131	0xbc73c400	-0.014878273
132	0xbdba4426	-0.090950295
133	0xbd432844	-0.047645822
134	0xbde38564	-0.111094266
135	0x3d5fb7c8	0.054618627
136	0x3def5fe8	0.116882145
137	0xbd8653c4	-0.06558946
138	0x3d90d8f4	0.070726305
139	0x3d2725a8	0.040807396
140	0x3b41ac80	0.002955228
141	0xbd99f09a	-0.07516594
142	0xbdbb3260	-0.09140468
143	0xbdab1700	-0.08353996
144	0xbda8c4a8	-0.08240634
145	0xbd772cf0	-0.06034559
146	0xbd8b2556	-0.06794231
147	0x3d15cc38	0.03657171
148	0xbbfc6240	-0.007702142
149	0x3c8e4808	0.017368332
150	0x3d97123e	0.07376526
151	0x3d02daa4	0.031946793
152	0x3d4465c0	0.0479486
153	0xbdde3360	-0.10849643
154	0xbdd0c6e4	-0.101941854
155	0xbd81690e	-0.06318866
156	0xbd7d2cbc	-0.06181024
157	0x3cea5c20	0.028608382
158	0xbd14caa0	-0.03632605
159	0x3ca1dbc0	0.019758105
160	0xbda0ff2c	-0.0786117
161	0xbd62311c	-0.055222616
162	0x3dfac116	0.122438595
163	0x3badf860	0.0053091496
164	0xbd6f8590	-0.058476985
165	0xbdb46c9c	-0.08809778
166	0xbda1d966	-0.079027936
167	0xbd813194	-0.063082844
168	0xbdd30180	-0.103030205
169	0xbd702058	-0.058624595
170	0xbda08474	-0.078377634
171	0xbd8ba0e4	-0.06817797
172	0x3d9658c0	0.073411465
173	0x3df58d6c	0.11989865
174	0x3dd91b68	0.106009305
175	0x3a285000	0.00064206123
176	0xbd444188	-0.047914058
177	0xbdc63a54	-0.09679094
178	0xbc81a840	-0.015827298
179	0x3dee4d28	0.1163581
180	0xbd9bff5a	-0.07617064
181	0x3cf994c8	0.030466452
182	0xbdd9cb34	-0.10634461
183	0x3c898920	0.01678902
184	0xbc385990	-0.011251822
185	0x3dde876e	0.10865675
186	0xbdd41336	-0.10355227
187	0xbdc1a770	-0.09455764
188	0xbdd23fc4	-0.102660686
189	0x3dde9d0c	0.10869798
190	0x3be37060	0.0069408864
191	0x3df87278	0.12131208
192	0xbc0c42a0	-0.0085608065
193	0xbcc4b570	-0.024012297
194	0xbd4fca38	-0.05072996
195	0xbd885e84	-0.066586524
196	0x3dd38718	0.103285015
197	0xbc99ef90	-0.01879099
198	0x3de9ad9a	0.11410065
199	0x3caa64f0	0.020800084
200	0xbdfc9c60	-0.12334514
201	0xbda7544a	-0.08170374
202	0x3dc152e8	0.09439641
203	0x3d6e60e8	0.058197886
204	0x3dbda100	0.09259224
205	0x3d4578bc	0.048210844
206	0x3dac51da	0.084140494
207	0xbbaf4920	-0.0053492934
208	0xbd753c94	-0.059872225
209	0xbda2945a	-0.07938452
210	0xbb26f0c0	-0.0025473088
211	0x3d17ebc4	0.037090078
212	0x3d965f0c	0.073423475
213	0x3de50760	0.11183047
214	0xbc533210	-0.012890354
215	0x3d79656c	0.06088774
216	0xbd0d1a64	-0.034448996
217	0x3da6ac10	0.08138287
218	0x3d8c09bc	0.06837794
219	0xbdccc9d8	-0.09999436
220	0xbdded590	-0.108805776
221	0xbc255700	-0.010091543
222	0xbddd84ac	-0.10816321
223	0xbdda69be	-0.106647
224	0x3d2b0c28	0.04175964
225	0x3d69d10c	0.05708413
226	0xbd5a9c74	-0.05337186
227	0x3d841112	0.064485684
228	0xbd4585cc	-0.0482233
229	0xbdd1a2cc	-0.10236129
230	0x3cbcdd90	0.023054868
231	0x3da10624	0.07862499
232	0xbcbd0330	-0.023072809
233	0xbdbd0e64	-0.092312604
234	0xbc8fb508	-0.017542377
235	0x3df18324	0.11792591
236	0x3ce772e0	0.028253019
237	0x3df4f5aa	0.11960919
238	0x3d7f352c	0.062306568
239	0xbde6acc8	-0.11263424
240	0x3cf296e8	0.029612973
241	0x3c9156c0	0.017741561
242	0x3d8ed02c	0.069732994
243	0xbd5ebf78	-0.054381818
244	0x3c821e18	0.01588349
245	0x3dffdf2c	0.124937385
246	0xbddf6b72	-0.109091654
247	0xbb8f1a80	-0.0043671727
248	0xbdba30e4	-0.090913564
249	0xbdaf5bf6	-0.08562462
250	0x3d29e924	0.041482106
251	0xbb3a2100	-0.0028401017
252	0xbd570eec	-0.052504465
253	0x3d0c9410	0.03432089
254	0x3d8cd646	0.06876807
255	0xbce16668	-0.027514651

mlp.0.bias f4 [64]
0	0xbdccc1fa	-0.099979356
1	0x3db4253a	0.08796163
2	0x3d85e192	0.06537165
3	0xbd29e770	-0.04148048
4	0x3ca71090	0.02039364
5	0xbdcff600	-0.10154343
6	0x3b508300	0.0031816363
7	0x3da75f00	0.08172417
8	0x3d9c9aac	0.07646689
9	0x3df939f2	0.12169255
10	0x3c17ded0	0.009269431
11	0xbd04e174	-0.03244157
12	0xbd327874	-0.043571904
13	0xbdd1df5a	-0.10247679
14	0x3dabc4d2	0.0838715
15	0xbd9420d8	-0.07232827
16	0x3d7ec63c	0.06220077
17	0x3c6b0e40	0.014346659
18	0xbd53315c	-0.051560745
19	0x3dfda162	0.12384297
20	0xbdfb6096	-0.12274282
21	0x3de379b8	0.111072004
22	0xbcfbb6f0	-0.03072688
23	0xbc3ed090	-0.011646405
24	0x3c65e570	0.014031753
25	0xbdc7e3f0	-0.097602725
26	0x3d33fc6c	0.0439419
27	0x3dee39f4	0.116321474
28	0xbd61a5d4	-0.055089787
29	0x3d2d7904	0.042351738
30	0xbd028580	-0.031865597
31	0xba028300	-0.0004978627
32	0x3dfa44e2	0.122201696
33	0xbd5e4850	-0.05426818
34	0xbd62ffd4	-0.055419758
35	0x3d69b358	0.0570558
36	0xbdbc6550	-0.09199011
37	0xbda300e2	-0.07959153
38	0x3dc3e648	0.09565407
39	0xbdb1a9b0	-0.086749434
40	0xbb595a40	-0.0033165365
41	0xbd9293e8	-0.07157117
42	0xbdc50a66	-0.09621124
43	0xbdc6e316	-0.09711282
44	0x3cc2d340	0.023782372
45	0x3d33a708	0.043860465
46	0x3cdc5648	0.02689661
47	0x3dd51478	0.10404295
48	0x3d5fe438	0.054661006
49	0x3d924882	0.07142736
50	0x3cf71df0	0.030165642
51	0xbc4a1210	-0.012333408
52	0x3d5c96bc	0.05385469
53	0x3de35a20	0.11101174
54	0xbcd85d30	-0.026411623
55	0xbdfd4166	-0.123659894
56	0xbd857642	-0.065166965
57	0xbd9cbd02	-0.07653238
58	0x3db512c0	0.08841467
59	0xbd63be10	-0.05560118
60	0xbd8252f0	-0.06363475
61	0x3d995ee8	0.07488805
62	0xbdc651fc	-0.09683606
63	0x3dc725dc	0.09724018

mlp.2.weight f4 [1, 64]
0	0xbd917f3e	-0.07104348
1	0xbd085e2c	-0.033292934
2	0x3d0ff374	0.035144284
3	0xbca85080	-0.020546198
4	0x3dbe02d2	0.09277882
5	0xbdf2d040	-0.11856127
6	0xbd914d4c	-0.07094821
7	0x3d4145f4	0.047185853
8	0x3b28b0c0	0.0025740117
9	0x3dfa26da	0.122144416
10	0x3cde4f00	0.02713728
11	0x3c8b5a50	0.017010838
12	0xbd2b2874	-0.041786626
13	0xbc42b630	-0.011884257
14	0x3dc4b798	0.0960533
15	0x3ca20890	0.019779474
16	0xbd12e1d4	-0.035859898
17	0xbccd76f0	-0.025081128
18	0xbce89d00	-0.028395176
19	0x3db4aaf8	0.08821672
20	0xbdff0c0c	-0.1245347
21	0xbbd6ece0	-0.0065589994
22	0xbc6a43d0	-0.014298394
23	0xbd6436d8	-0.055716366
24	0x3c0fe710	0.008783117
25	0xbd0fe64c	-0.035131738
26	0x3dcb7994	0.099352986
27	0xbd7fd698	-0.062460512
28	0x3dea7230	0.11447561
29	0xbc859568	-0.016306594
30	0xbd46e128	-0.04855457
31	0x3d329464	0.043598548
32	0x3ddcd656	0.10783069
33	0x3ba17b80	0.0049280524
34	0x3dae778e	0.08518897
35	0x3ce6cc80	0.028173685
36	0x3c63ea10	0.013910785
37	0xbde3ff14	-0.11132637
38	0xbd58226c	-0.052767202
39	0xbd2e51fc	-0.042558655
40	0xbde77f54	-0.11303583
41	0xbdf689fe	-0.12038039
42	0xbdfba882	-0.12288
43	0xbc93a678	-0.018023714
44	0xbdc02c76	-0.0938348
45	0x3d9550ec	0.07290825
46	0xbdc0889c	-0.09401056
47	0xbd9a952e	-0.07547985
48	0xbd46cebc	-0.048537
49	0xbcb937d0	-0.022609621
50	0xbdaab626	-0.08335523
51	0xbda7ce7a	-0.08193679
52	0xbdf71708	-0.1206494
53	0x3c6a3f90	0.014297381
54	0xbdc90006	-0.098144576
55	0xbcf38690	-0.02972725
56	0x3d873568	0.06601983
57	0xbdbe63ac	-0.09296355
58	0xbdd1b8b6	-0.10240309
59	0xbd8f794e	-0.07005559
60	0x3da11bd4	0.07866636
61	0xb9cac200	-0.00038672984
62	0x3c8f70f8	0.017509922
63	0xbd195d44	-0.03744246

gcn1.bias f4 [64]
0	0x00000000	0.0
1	0x00000000	0.0
2	0x00000000	0.0
3	0x00000000	0.0
4	0x00000000	0.0
5	0x00000000	0.0
6	0x00000000	0.0
7	0x00000000	0.0
8	0x00000000	0.0
9	0x00000000	0.0
10	0x00000000	0.0
11	0x00000000	0.0
12	0x00000000	0.0
13	0x00000000	0.0
14	0x00000000	0.0
15	0x00000000	0.0
16	0x00000000	0.0
17	0x00000000	0.0
18	0x00000000	0.0
19	0x00000000	0.0
20	0x00000000	0.0
21	0x00000000	0.0
22	0x00000000	0.0
23	0x00000000	0.0
24	0x00000000	0.0
25	0x00000000	0.0
26	0x00000000	0.0
27	0x00000000	0.0
28	0x00000000	0.0
29	0x00000000	0.0
30	0x00000000	0.0
31	0x00000000	0.0
32	0x00000000	0.0
33	0x00000000	0.0
34	0x00000000	0.0
35	0x00000000	0.0
36	0x00000000	0.0
37	0x00000000	0.0
38	0x00000000	0.0
39	0x00000000	0.0
40	0x00000000	0.0
41	0x00000000	0.0
42	0x00000000	0.0
43	0x00000000	0.0
44	0x00000000	0.0
45	0x00000000	0.0
46	0x00000000	0.0
47	0x00000000	0.0
48	0x00000000	0.0
49	0x00000000	0.0
50	0x00000000	0.0
51	0x00000000	0.0
52	0x00000000	0.0
53	0x00000000	0.0
54	0x00000000	0.0
55	0x00000000	0.0
56	0x00000000	0.0
57	0x00000000	0.0
58	0x00000000	0.0
59	0x00000000	0.0
60	0x00000000	0.0
61	0x00000000	0.0
62	0x00000000	0.0
63	0x00000000	0.0

gcn1.lin.weight f4 [64, 6]
0	0xbdd07425	-0.10178403
1	0xbe0998ac	-0.13437146
2	0x3e0d4691	0.1379645
3	0x3d85e9b5	0.06538717
4	0x3deb896a	0.11500819
5	0xbe01564c	-0.12630576
6	0x3c0faa36	0.008768609
7	0xbc2273d6	-0.009915313
8	0x3d0ddb0c	0.034632728
9	0x3e312001	0.17297365
10	0xbe00158f	-0.12508224
11	0x3e8305f4	0.2559048
12	0x3e2d53a9	0.16926445
13	0xbe5dfd82	-0.21678737
14	0xbe4cefad	-0.20013304
15	0x3e9067b2	0.28204113
16	0xbcf93c9e	-0.030424412
17	0xbbdf2882	-0.006810249
18	0xbdb38d97	-0.087672405
19	0xbe946baf	-0.28988406
20	0x3e0bb718	0.13644063
21	0xbe806750	-0.2507882
22	0x3d61d762	0.055137046
23	0xbde7b799	-0.11314315
24	0xbdacfd91	-0.084468015
25	0x3e2acef1	0.16680504
26	0x3e6e1ff4	0.23254377
27	0xbe8e484a	-0.27789527
28	0x3e0ec17c	0.13940996
29	0xbd402196	-0.04690703
30	0x3db57cf0	0.088617206
31	0xbdc71b80	-0.09722042
32	0x3e3f51e9	0.1868359
33	0xbb9f651e	-0.004864349
34	0xbe089dfa	-0.13341513
35	0xbe0b650d	-0.13612767
36	0x3e8fd65a	0.28093225
37	0x3d83312b	0.064058624
38	0x3e869075	0.26282087
39	0xbd4fb6a6	-0.050711296
40	0xbe332065	-0.17492826
41	0x3e3e48e1	0.18582489
42	0xbe2d3a03	-0.16916661
43	0xbe8a0909	-0.26960018
44	0x3ba53912	0.0050422037
45	0x3e80ec71	0.2518039
46	0x3da01233	0.07815971
47	0x3e4e62fd	0.20154949
48	0x3e7b5893	0.24545507
49	0xbc5004d2	-0.012696462
50	0xbe849a8a	-0.25899154
51	0xbe70f18a	-0.2352964
52	0xbe58bc2f	-0.21165536
53	0xbe240d96	-0.16020808
54	0xbd8c15a3	-0.068400644
55	0xbe224cc7	-0.158496
56	0xbe93f9cb	-0.28901514
57	0xbe6c4c33	-0.23075943
58	0x3e49e962	0.19717935
59	0xbe169c13	-0.14707975
60	0x3e150123	0.14551215
61	0xbdc855dd	-0.09782002
62	0x3d02fe19	0.031980608
63	0x3df5c0db	0.11999675
64	0x3da489d9	0.08034105
65	0x3d5dad14	0.05412014
66	0xbd9749f1	-0.0738715
67	0x3d810bb6	0.06301062
68	0xbe8d99b9	-0.27656344
69	0xbe807676	-0.2509038
70	0x3e71cd7c	0.23613542
71	0xbdaa6fcf	-0.08322107
72	0xbde6fcb4	-0.11278668
73	0x3d072abf	0.03299975
74	0x3e1472b4	0.14496881
75	0x3e363c6e	0.1779649
76	0x3d794253	0.060854267
77	0xbce28172	-0.027649615
78	0x3df63f51	0.120237954
79	0x3e698cc8	0.2280761
80	0x3e15652e	0.14589378
81	0x3db6b6b2	0.08921565
82	0xbdb618c9	-0.08891446
83	0x3d60546a	0.054768004
84	0x3e8bc285	0.27296844
85	0xbdb35a02	-0.08757402
86	0xbd7f24d9	-0.062291
87	0xbd8a9dec	-0.067684025
88	0xbdb32088	-0.08746439
89	0x3df6945e	0.120400175
90	0x3df84206	0.12121968
91	0x3e2af8c3	0.16696458
92	0x3e8b64a9	0.27225235
93	0xbe93cd54	-0.2886759
94	0x3e74965a	0.2388548
95	0xbd55197c	-0.052026257
96	0xbe7f72cc	-0.24946135
97	0xbe7dcb97	-0.24784695
98	0x3de81777	0.113326006
99	0x3e3d9dd7	0.18517242
100	0x3e14ac53	0.14518861
101	0xbca915d4	-0.020640291
102	0xbe4e7b8c	-0.20164317
103	0x3e4c3bb0	0.19944644
104	0xbe2ada49	-0.16684832
105	0xbe0d262e	-0.13784096
106	0x3d8ae66c	0.06782231
107	0x3e68479b	0.22683565
108	0x3e54a105	0.20764549
109	0xbddedb83	-0.10881712
110	0xbdcfbfbe	-0.10143994
111	0xbe037256	-0.12836584
112	0x3d6745a3	0.056462895
113	0x3e0fad15	0.1403087
114	0xbe8ee6e2	-0.27910525
115	0x3e7a7789	0.24459662
116	0x3d82fc5c	0.0639579
117	0x3e6e30f8	0.23260868
118	0x3e6282c4	0.22120196
119	0xbe2e4e74	-0.17022115
120	0x3c7cc408	0.015427597
121	0xbe61e243	-0.22058968
122	0x3e15ae17	0.14617191
123	0x3b8aefc1	0.0042400067
124	0xbd9ba707	-0.07600217
125	0x3e7014f7	0.23445497
126	0x3d28ff2d	0.04125898
127	0xbd3bbf24	-0.045836583
128	0x3db03209	0.086032934
129	0x3e417d92	0.18895558
130	0x3db2b9b3	0.087268256
131	0x3dd323dc	0.10309574
132	0x3e6dc911	0.23221232
133	0x3dbda59d	0.09260104
134	0xbe86018a	-0.2617305
135	0xbe69bbe6	-0.22825584
136	0xbdab430b	-0.08362397
137	0x3e6134c2	0.21992782
138	0xbddaab88	-0.10677248
139	0x3dd4f1e8	0.103977025
140	0x3e80ba9c	0.25142372
141	0xbe430884	-0.19046217
142	0xbe5adb80	-0.21372795
143	0x3e2d0fba	0.1690053
144	0xbbee6d93	-0.007276246
145	0xbdda793b	-0.10667654
146	0xbe3a7fc4	-0.18212801
147	0xbc4fa9c4	-0.012674753
148	0xbdd28460	-0.10279155
149	0x3e60e057	0.21960579
150	0xbe720dd2	-0.23638085
151	0x3e537555	0.20650227
152	0xbd03bdc1	-0.032163385
153	0xbe6944f8	-0.22780216
154	0x3c361af1	0.011114822
155	0x3e80200d	0.25024453
156	0xbe344d14	-0.17607528
157	0x3da4e32e	0.080511436
158	0xbe492d18	-0.19646108
159	0x3e405f26	0.18786296
160	0xbe0f247f	-0.13978766
161	0xbca64d3a	-0.020300496
162	0xbd861152	-0.06546272
163	0x3e684674	0.22683126
164	0x3e8e330a	0.27773315
165	0xbd3ae991	-0.045632903
166	0xbe696072	-0.22790697
167	0x3e5d1ca2	0.21592954
168	0x3e283e8b	0.16430108
169	0x3c5bd56d	0.013417584
170	0x3d09d5f6	0.033651315
171	0x3e511ced	0.2042119
172	0xbe1eed2e	-0.15520164
173	0x3e44e7d3	0.19229059
174	0xbdb26e79	-0.08712477
175	0xbe43ab40	-0.19108295
176	0x3e16d0eb	0.14728133
177	0x3de9fbc2	0.11424972
178	0xbded3653	-0.11582627
179	0x3e52d9c6	0.20590886
180	0xbe289f07	-0.16466914
181	0x3e92d5eb	0.2867883
182	0x3da3a70b	0.07990845
183	0x3cbf8c46	0.023382317
184	0x3e081749	0.13290133
185	0x3e1c7e81	0.15282632
186	0xbe090930	-0.13382411
187	0x3b91e58d	0.0044524134
188	0x3e288617	0.16457401
189	0xbe5223ef	-0.2052152
190	0x3e0352e9	0.12824596
191	0x3c03a78a	0.00803555
192	0x3e1d3bf2	0.15354899
193	0xbe2a37d8	-0.16622865
194	0x3da7754f	0.08176672
195	0x3e6c2023	0.23059134
196	0xbe3a095e	-0.18167636
197	0x3e14accd	0.14519043
198	0xbe413645	-0.18868358
199	0xbe44905a	-0.19195691
200	0x3ceea014	0.029129066
201	0xbe84c5e2	-0.25932223
202	0xbe86b05c	-0.26306427
203	0xbd0b2ae4	-0.03397645
204	0xbe37f260	-0.17963552
205	0x3e8465aa	0.25858814
206	0x3e80c119	0.25147322
207	0x3e856ddd	0.26060382
208	0xbd058ebf	-0.032606836
209	0xbe03a6d3	-0.12856607
210	0xbe5878d4	-0.21139842
211	0x3e141b44	0.14463526
212	0x3c917c98	0.017759606
213	0x3e8b69d9	0.27229193
214	0xbb045dca	-0.0020197504
215	0x3d88022b	0.066410385
216	0x3d80e9a4	0.062945634
217	0x3d447ef1	0.047972623
218	0x3e2117ab	0.15731685
219	0xbe5707f3	-0.20999126
220	0xbd838cb7	-0.064233236
221	0x3dd40b01	0.10353661
222	0x3e4b34d8	0.19844377
223	0xbe94694e	-0.2898659
224	0xbd0de129	-0.034638558
225	0x3b26698d	0.0025392503
226	0xbb468ebb	-0.0030297476
227	0x3e84d85b	0.25946316
228	0xbdb60f7d	-0.08889673
229	0x3e856706	0.26055163
230	0x3d465bca	0.04842738
231	0x3d8a344a	0.067482546
232	0xbcf391f1	-0.029732676
233	0x3dc89a1d	0.0979502
234	0xbe8768c9	-0.26447132
235	0x3e19ceea	0.15020338
236	0x3e53c211	0.20679499
237	0xbe5c4c43	-0.21513467
238	0xbe134660	-0.14382315
239	0xbe3d452f	-0.18483423
240	0x3c3bec69	0.011469939
241	0xbe00149d	-0.12507863
242	0xbd9ae231	-0.07562674
243	0x3dcc4d43	0.09975674
244	0x3d058557	0.032597866
245	0x3df6b285	0.12045769
246	0xbe017964	-0.12643963
247	0xbe1060ed	-0.14099474
248	0x3e4f0de3	0.20220141
249	0x3e8055ef	0.25065562
250	0x3c908ef0	0.017646283
251	0xbdc1eeb7	-0.09469359
252	0x3e7722f9	0.24134435
253	0xbdd8170b	-0.1055127
254	0x3e088c17	0.1333469
255	0x3e1098ae	0.14120743

gcn2.bias f4 [64]
0	0x00000000	0.0
1	0x00000000	0.0
2	0x00000000	0.0
3	0x00000000	0.0
4	0x00000000	0.0
5	0x00000000	0.0
6	0x00000000	0.0
7	0x00000000	0.0
8	0x00000000	0.0
9	0x00000000	0.0
10	0x00000000	0.0
11	0x00000000	0.0
12	0x00000000	0.0
13	0x00000000	0.0
14	0x00000000	0.0
15	0x00000000	0.0
16	0x00000000	0.0
17	0x00000000	0.0
18	0x00000000	0.0
19	0x00000000	0.0
20	0x00000000	0.0
21	0x00000000	0.0
22	0x00000000	0.0
23	0x00000000	0.0
24	0x00000000	0.0
25	0x00000000	0.0
26	0x00000000	0.0
27	0x00000000	0.0
28	0x00000000	0.0
29	0x00000000	0.0
30	0x00000000	0.0
31	0x00000000	0.0
32	0x00000000	0.0
33	0x00000000	0.0
34	0x00000000	0.0
35	0x00000000	0.0
36	0x00000000	0.0
37	0x00000000	0.0
38	0x00000000	0.0
39	0x00000000	0.0
40	0x00000000	0.0
41	0x00000000	0.0
42	0x00000000	0.0
43	0x00000000	0.0
44	0x00000000	0.0
45	0x00000000	0.0
46	0x00000000	0.0
47	0x00000000	0.0
48	0x00000000	0.0
49	0x00000000	0.0
50	0x00000000	0.0
51	0x00000000	0.0
52	0x00000000	0.0
53	0x00000000	0.0
54	0x00000000	0.0
55	0x00000000	0.0
56	0x00000000	0.0
57	0x00000000	0.0
58	0x00000000	0.0
59	0x00000000	0.0
60	0x00000000	0.0
61	0x00000000	0.0
62	0x00000000	0.0
63	0x00000000	0.0

gcn2.lin.weight f4 [64, 64]
0	0xbe261963	-0.16220622
1	0xbc146774	-0.009057868
2	0xbe0f6cfe	-0.14006421
3	0xbe3a30aa	-0.18182626
4	0xbdb4293d	-0.08796928
5	0x3e05f6db	0.13082449
6	0xbe2d85f6	-0.16945633
7	0xbd842fff	-0.06454467
8	0x3e4a96b9	0.19784059
9	0xbbcfb1d8	-0.0063383393
10	0xbe0575f2	-0.13033274
11	0xbe301fcc	-0.1719963
12	0xbdf22e23	-0.11825206
13	0x3d7f73b7	0.062366214
14	0xbe54e220	-0.20789385
15	0x3e38a062	0.18029931
16	0xbe283220	-0.16425371
17	0xbe5d04d1	-0.21583869
18	0x3e344c66	0.17607269
19	0xbd35fc8a	-0.044430293
20	0xbd19715e	-0.03746163
21	0x3bbb84df	0.0057226266
22	0x3d288d11	0.041150156
23	0x3dfab076	0.122406885
24	0xbdc7cae1	-0.09755493
25	0xbe37ed17	-0.17961536
26	0x3e08be35	0.13353808
27	0x3e4866bc	0.1957044
28	0xbe4d908a	-0.20074669
29	0x3e062e67	0.13103639
30	0x3da48f1a	0.08035107
31	0x3e3b5cbc	0.18297094
32	0xbe17d8b0	-0.14828753
33	0x3de50b4e	0.11183797
34	0xbe2e9744	-0.17049891
35	0x3e0c793f	0.13718127
36	0x3dcb997b	0.099413835
37	0xbd78e44d	-0.0607646
38	0x3e41487b	0.18875305
39	0x3cf84625	0.030306885
40	0xbe285c50	-0.16441464
41	0xbe03c99a	-0.12869874
42	0xbe35f7fc	-0.1777038
43	0xbdcaf3fa	-0.09909816
44	0xbcdb6343	-0.02678073
45	0x3e3a5624	0.18196923
46	0x3e1bd4dd	0.1521792
47	0x3de39075	0.11111537
48	0xbdaf63bc	-0.08563945
49	0xbdf3f75f	-0.11912417
50	0xbe25cf78	-0.16192424
51	0xbdfdbbfe	-0.12389372
52	0x3e346a3d	0.17618652
53	0xbe3ef7c3	-0.18649201
54	0xbe4c66cc	-0.19961089
55	0x3cb93ee7	0.022613002
56	0xbda1fe19	-0.079097934
57	0xbd595ef3	-0.053069066
58	0x3e54ee91	0.20794131
59	0xbcb9fa04	-0.022702225
60	0xbe5bef0a	-0.21477905
61	0x3e3541bc	0.17700857
62	0x3e3a5743	0.1819735
63	0xbe200dfa	-0.15630332
64	0x3e4de4c1	0.20106794
65	0xbe2f0c1e	-0.17094466
66	0x3d462cbe	0.048382513
67	0xbdc80409	-0.09766395
68	0x3ca30199	0.019898223
69	0x3deb25df	0.11481833
70	0xbd172441	-0.03689981
71	0xbcb6097a	-0.022221316
72	0x3dfb314f	0.12265264
73	0xbd618a4b	-0.055063527
74	0xbaff75e8	-0.0019490095
75	0xbb005ea2	-0.0019587656
76	0xbd42e23c	-0.047579035
77	0xbd88bb5a	-0.066763595
78	0xbd44d804	-0.04805757
79	0xbe45b90c	-0.19308871
80	0xbd9f7f80	-0.077879906
81	0xbdd9fe95	-0.10644261
82	0x3dd7dacf	0.10539781
83	0x3ca41b37	0.020032508
84	0xbdf73119	-0.120699115
85	0xbdaf47ac	-0.08558592
86	0x3e13080e	0.14358541
87	0xbdc97c34	-0.09838143
88	0xbb361b72	-0.0027787355
89	0xbe1b8339	-0.15186776
90	0x3b8bea98	0.004269909
91	0x3e3bd674	0.18343526
92	0xbddfce4e	-0.10928021
93	0xbdf1bb7b	-0.11803337
94	0xbcc47148	-0.023979798
95	0xbd8174b2	-0.06321086
96	0x3e01a536	0.12660679
97	0xbcd48e29	-0.025946693
98	0xbdbc8ca1	-0.0920651
99	0xbe498b75	-0.19682105
100	0x3e3e7241	0.18598272
101	0xbdb1c72a	-0.08680566
102	0x3e23730a	0.15961853
103	0x3e48fb9c	0.19627231
104	0x3e475cb7	0.19468962
105	0x3defc11d	0.11706755
106	0x3def7a0c	0.116932005
107	0xbd05bcfd	-0.032650936
108	0x3d210999	0.039315794
109	0xbd9cb947	-0.07652526
110	0xbcaa6c69	-0.020803647
111	0x3e0f4607	0.13991557
112	0xbd7c6a91	-0.061625067
113	0x3e13d45e	0.1443648
114	0xbdb9c69c	-0.09071085
115	0xbe095409	-0.13410963
116	0xbe20a2ed	-0.15687151
117	0x3e09a51d	0.13441892
118	0xbd9437c4	-0.07237199
119	0xbd9147d0	-0.07093775
120	0x3e4344c4	0.19069201
121	0x3d997169	0.074923344
122	0x3e281e3a	0.1641778
123	0x3c9f0cf1	0.01941535
124	0x3ccfda10	0.025372535
125	0xbdaf44fe	-0.08558081
126	0x3e226b1e	0.15861174
127	0xbe064ace	-0.13114473
128	0x3e394e0e	0.18096182
129	0x3d3e9d9c	0.046537027
130	0x3e33d5fe	0.175621
131	0x3da57c8b	0.08080395
132	0xbd501a2d	-0.050806213
133	0x3dea49a1	0.11439825
134	0xbe44dfac	-0.19225949
135	0xbe209e24	-0.15685326
136	0x3dd34ba2	0.1031716
137	0xbe58ee40	-0.21184635
138	0x3b5d3a2a	0.0033756592
139	0x3e08ad92	0.13347462
140	0x3e3f5c7a	0.18687621
141	0x3e04eb0f	0.12980293
142	0x3e56a62f	0.20961832
143	0x3d8aab5e	0.06770967
144	0xbe26c4a6	-0.16285953
145	0xbdb25d98	-0.08709258
146	0x3e3488f2	0.17630365
147	0xbdcf9296	-0.10135381
148	0x3e0bc88b	0.1365072
149	0xbd41cc8a	-0.047314204
150	0xbdce2e15	-0.10067383
151	0x3b808b3c	0.003922848
152	0x3ba65e0c	0.005077129
153	0x3dd715ad	0.10502181
154	0x3e495762	0.1966224
155	0xbd88bf16	-0.06677072
156	0x3d4abadf	0.04949462
157	0x3de33e8d	0.11095915
158	0x3de33bea	0.11095412
159	0x3dd203a8	0.102546036
160	0x3daa2be8	0.08309156
161	0x3e1389bc	0.1440801
162	0x3e0b3ae4	0.13596684
163	0x3d71a1de	0.05899226
164	0x3e1e071c	0.154324
165	0x3e5c8f4b	0.21539037
166	0x3d68d2ca	0.05684165
167	0x3ddcfcbe	0.10790394
168	0xbc959056	-0.018257301
169	0x3e3e0fce	0.18560717
170	0xbe13d5c8	-0.1443702
171	0xbc85d1bf	-0.016335366
172	0x3c168f6f	0.009189471
173	0xbe48e719	-0.19619407
174	0x3e3cc34e	0.18433878
175	0x3e3c7ced	0.1840703
176	0xbe23760e	-0.15963003
177	0xbdc40d34	-0.09572831
178	0x3c4357c5	0.011922781
179	0xbc5a67e6	-0.013330435
180	0xbd4eeaa2	-0.050516732
181	0x3e174c18	0.14775121
182	0xbe0022d3	-0.12513284
183	0xbd94371a	-0.07237072
184	0xba4e7055	-0.0007875015
185	0xbd6bd0ca	-0.057572164
186	0xbe532f1a	-0.20623437
187	0x3e2f6604	0.1712876
188	0x3e557529	0.20845474
189	0x3db18563	0.086680196
190	0xbbc78055	-0.0060882964
191	0xbe12d564	-0.14339215
192	0xbd73a705	-0.059485454
193	0xbe510295	-0.20411141
194	0xbe3c0f05	-0.18365104
195	0x3e3c22cc	0.18372649
196	0xbe1563c0	-0.14588833
197	0xbde8d224	-0.11368206
198	0x3e27e637	0.16396414
199	0x3d63703d	0.05552696
200	0xbdb860d9	-0.09002847
201	0xbe2e8c95	-0.17045815
202	0xbe145192	-0.14484242
203	0x3e4a16b6	0.19735226
204	0x3e327823	0.17428641
205	0xbe2e5cac	-0.17027539
206	0xbe1719bf	-0.14755915
207	0xbd436dbf	-0.047712084
208	0x3e2c147c	0.16804689
209	0xbd003555	-0.03130086
210	0xbde6fa90	-0.1127826
211	0xbc5f7001	-0.013637544
212	0x3d09f353	0.033679318
213	0x3e4af0bc	0.19818395
214	0x3a2ca302	0.00065855694
215	0x3d443039	0.04789755
216	0xbd6bb49e	-0.057545297
217	0xbe3f6a01	-0.18692781
218	0xbe3d5c2c	-0.18492192
219	0xbdbec537	-0.093149595
220	0xbce635bb	-0.028101793
221	0xbe3b3bf4	-0.18284589
222	0xba3edb6c	-0.0007280621
223	0x3d3d8b59	0.04627547
224	0x3e38dde6	0.18053398
225	0x3d0d6790	0.034522593
226	0x3d9d6e44	0.07687047
227	0x3e525539	0.20540322
228	0xbd83a7d4	-0.06428495
229	0x3cf66e61	0.03008193
230	0xbe0a3e80	-0.13500404
231	0x3e3b5432	0.18293837
232	0x3d83958c	0.06425008
233	0xbe515718	-0.2044338
234	0xbdaff3dd	-0.08591435
235	0xbd878b56	-0.06618373
236	0xbe0d5ca8	-0.13804877
237	0x3e47b78a	0.19503608
238	0xbe5a8c3d	-0.21342559
239	0xbdfe8a5d	-0.124287345
240	0xbe27051a	-0.1631054
241	0x3d69cc3c	0.05707954
242	0xbd81d2e0	-0.06339049
243	0xbe1470c3	-0.1449614
244	0xbdb0b672	-0.08628549
245	0x3e55eb55	0.20890553
246	0xbda621b2	-0.081118956
247	0xbe48384a	-0.19552723
248	0xbe130b56	-0.14359793
249	0x3d585ca1	0.052822713
250	0x3d48d778	0.049033612
251	0xbe081ee3	-0.13293032
252	0xbe33b829	-0.1755072
253	0x3e31c19e	0.17359015
254	0x3bea1fe3	0.0071449145
255	0xbd13cc98	-0.036083788

fc.0.weight f4 [64, 80]
0	0xbda32ee6	-0.079679295
1	0x3c9a9118	0.018868014
2	0xbd56b399	-0.05241737
3	0x3d4dcd1d	0.05024444
4	0x3d069d8a	0.032865085
5	0xbd12259c	-0.0356804
6	0x3da9352e	0.08262096
7	0xbda60d2b	-0.0810798
8	0x3d8d08e5	0.06886462
9	0xbd38752c	-0.04503362
10	0xbd7748f1	-0.060372297
11	0x3b29d418	0.0025913771
12	0x3d6e0517	0.058110323
13	0x3dc5aa18	0.096515834
14	0x3d0f4990	0.034982264
15	0x3dbf5099	0.09341545
16	0x3de01b9f	0.10942768
17	0xbb50a410	-0.003183607
18	0xbc872894	-0.016498841
19	0xbd23ef23	-0.04002298
20	0x3dc2b668	0.095074475
21	0x3d3cbdd3	0.046079468
22	0x3bcced9f	0.0062539126
23	0xbd2e1fbc	-0.042510733
24	0x3c5fa119	0.0136492485
25	0x3d2d05c8	0.04224184
26	0xbde298e8	-0.11064321
27	0xbde2528e	-0.11050902
28	0x3cc891a8	0.024483517
29	0xbbb4478c	-0.005501693
30	0xbda908cb	-0.0825363
31	0xbda1598c	-0.07878408
32	0x3cc18fda	0.023628164
33	0x3d9c6cce	0.0763794
34	0x3ca989f8	0.020695671
35	0x3cbe064d	0.023196364
36	0x3cdd6674	0.027026393
37	0x3d700d21	0.05860627
38	0xbd834cae	-0.0641111
39	0xbc9623f8	-0.018327698
40	0xbda7daa7	-0.081960015
41	0x3d6c45b2	0.057683654
42	0xbc679acc	-0.014136028
43	0x3d68692f	0.056740936
44	0xbd136a54	-0.035990074
45	0x3da6a2ce	0.08136521
46	0x3c617bdf	0.013762443
47	0x3cc0e5e2	0.023547117
48	0x3b3b650d	0.0028594167
49	0x3d9d917a	0.07693763
50	0x3de4601a	0.111511424
51	0x3d83490f	0.06410419
52	0xbdbeab3a	-0.093100026
53	0x3db24be6	0.08705883
54	0xbd8dd808	-0.0692597
55	0x3c8269c1	0.015919568
56	0xbc9e68be	-0.019337054
57	0x3db16e83	0.086636566
58	0xbd310f19	-0.04322729
59	0xbca5e608	-0.020251289
60	0x3dba6d2d	0.09102855
61	0xbced39df	-0.02895826
62	0xbdce769a	-0.10081215
63	0x3d0d6b61	0.034526233
64	0x3dd59721	0.10429216
65	0xbd6dc507	-0.058049228
66	0xbbe7e8d5	-0.0070773163
67	0x3d8ffbd2	0.07030453
68	0x3dbd72f0	0.09250438
69	0xbda3afda	-0.079925254
70	0xbd5cf865	-0.053947825
71	0x3d8ea531	0.069651015
72	0xbc2a6b24	-0.010401521
73	0x3dd13a25	0.10216168
74	0x3d95b12b	0.07309183
75	0x3d45e2ae	0.04831188
76	0x3da29227	0.079380326
77	0x3dc3e9d8	0.095660865
78	0x3d44e8f4	0.048073724
79	0x3d67e933	0.05661888
80	0xbdb25ea7	-0.0870946
81	0xbcdb37ff	-0.0267601
82	0xbd25bffa	-0.040466286
83	0x3b847f96	0.0040435297
84	0x3bdf9c59	0.006824058
85	0x3cb0bc84	0.021574266
86	0xbd419b22	-0.047267087
87	0x3d9a8f15	0.07546822
88	0xbd8f28ae	-0.06990181
89	0xbd039c63	-0.032131564
90	0x3ddf00eb	0.10888847
91	0x3d7b2369	0.061313067
92	0x3dc4f594	0.09617153
93	0xbc91e255	-0.017808119
94	0xbdc16eb6	-0.094449446
95	0x3d565971	0.05233139
96	0x3ca87284	0.020562418
97	0xbdcdb3c7	-0.100440554
98	0xbcc42e2c	-0.023947798
99	0x3cbfaa84	0.023396738
100	0x3da45735	0.08024446
101	0xbdd331a6	-0.10312204
102	0xbd039598	-0.032125086
103	0x3d38405c	0.044983253
104	0x3db8d25c	0.09024498
105	0xbd3a2d9f	-0.045453664
106	0x3c4f3cd6	0.012648782
107	0xbda5be1a	-0.080928996
108	0x3d004c58	0.031322807
109	0xbd9b09a0	-0.07570195
110	0x3d7d7fbd	0.0618894
111	0x3d431fa6	0.047637604
112	0x3da052c3	0.078282855
113	0xbd2f606e	-0.042816572
114	0x3d23816b	0.039918344
115	0x3d5f48b8	0.05451271
116	0xbd332f1a	-0.04374609
117	0xb599d76b	-1.1462083e-06
118	0xbd5a8694	-0.053351
119	0x3c1e83a8	0.009674944
120	0xbd807613	-0.06272521
121	0xbd2e521e	-0.04255878
122	0x3d21fb7a	0.039546467
123	0x3d61fdf1	0.055173818
124	0x3ddd94e1	0.10819412
125	0xbcb4f584	-0.022089727
126	0xbc50226d	-0.01270352
127	0xbd150282	-0.036379345
128	0x3cafcf21	0.021461071
129	0xbda4ebff	-0.08052825
130	0x3d8ab96d	0.067736484
131	0x3c2f43d2	0.010697322
132	0xbda51600	-0.08060837
133	0x3dbd0456	0.09229343
134	0x3ce3cf6b	0.027808866
135	0x3dbc0b36	0.09181826
136	0xbcd015fd	-0.02540111
137	0xbdab13fc	-0.08353421
138	0xbb852b18	-0.004063975
139	0xbd8cab5a	-0.0686862
140	0x3c900451	0.017580183
141	0x3d7a2219	0.061067674
142	0xbb44d95e	-0.0030036788
143	0xbd6afa76	-0.057367764
144	0xbd0e8601	-0.034795765
145	0xbd1e8b67	-0.038707163
146	0x3d9e3e89	0.077267714
147	0x3dd846c5	0.10560373
148	0xbd9a6b13	-0.07539954
149	0xbd6696a1	-0.056295995
150	0xbd27eccc	-0.04099731
151	0xbda7debf	-0.08196782
152	0xbd1effed	-0.03881829
153	0xbc7d3a76	-0.015455833
154	0xbd9409cd	-0.07228432
155	0xbd0430c7	-0.03227308
156	0x3d499c99	0.04922161
157	0x3dc60cc8	0.096704066
158	0x3cbdfb8a	0.023191232
159	0xbc9327a7	-0.017963244
160	0xbd35e107	-0.044404056
161	0xbda00a2e	-0.078144416
162	0x3db156ca	0.08659132
163	0x3c6f8e4a	0.014621327
164	0xbdc325d7	-0.09528702
165	0xbca1ad65	-0.019736001
166	0x3dbcd013	0.092193745
167	0xbdd03d62	-0.10167958
168	0xbdb5b90d	-0.08873186
169	0x3dbff31e	0.09372543
170	0x3c93ed27	0.018057419
171	0x3dc74ab7	0.097310476
172	0x3bbb9694	0.0057247374
173	0xbd00030f	-0.031252917
174	0xbdb0e390	-0.08637154
175	0xbd8b9fb1	-0.06817568
176	0x3d8bdfb2	0.06829776
177	0xbdd030ac	-0.101655334
178	0x3d1395fd	0.03603171
179	0xba486f80	-0.00076460093
180	0x3aae82d9	0.0013314142
181	0x3d6a2675	0.05716558
182	0x3dc20ff4	0.09475699
183	0xbde499f7	-0.11162179
184	0xbc146a7c	-0.009058591
185	0xbddd2b4b	-0.10799273
186	0x3dc8bd6b	0.098017536
187	0xbceeae35	-0.029135803
188	0xbdd14583	-0.102183364
189	0x3d8dd79d	0.069258906
190	0x3d8e1226	0.06937055
191	0xbdc656c0	-0.09684515
192	0x3dbfffd2	0.09374966
193	0xbd5dcf70	-0.054152906
194	0xbddcb7cd	-0.10777245
195	0xbd814f48	-0.0631395
196	0x3c30f5e6	0.010800814
197	0x3db0ccc1	0.08632804
198	0x3d850871	0.06495751
199	0xbdcad0e6	-0.099031255
200	0x3d8d6ec8	0.069058955
201	0x3dae89c6	0.08522372
202	0xbdb74b9d	-0.08949969
203	0xbd8825e6	-0.066478536
204	0xbdbe531c	-0.092931956
205	0xbdc60cc0	-0.096704006
206	0xbda00927	-0.07814246
207	0x3bc85cb7	0.006114568
208	0xbdce9580	-0.100871086
209	0xbd099bb3	-0.033595752
210	0xbdd10401	-0.10205842
211	0xbc0450e8	-0.00807593
212	0x3cde965d	0.027171308
213	0x3d8b5d8c	0.06804952
214	0x3cd87e66	0.026427459
215	0xbdd0fa13	-0.10203948
216	0xbd2d9d51	-0.042386357
217	0x3cce4f65	0.025184343
218	0x3bb93100	0.005651593
219	0x3d9fcda2	0.07802893
220	0xbc82e08b	-0.015976211
221	0x3acf5a04	0.0015819673
222	0xbc613ba4	-0.01374713
223	0x3d45a92b	0.048257034
224	0x3c143121	0.009044916
225	0xbde1a55b	-0.11017867
226	0xbda921d1	-0.08258403
227	0xbdb5a9cc	-0.08870277
228	0xbd559ebf	-0.052153345
229	0xbd308f9d	-0.04310571
230	0xbc33f03b	-0.010982568
231	0x3d90850f	0.07056629
232	0x3d13c609	0.036077533
233	0xbdbd79de	-0.0925176
234	0xbd2244c7	-0.039616372
235	0xbcab963e	-0.020945664
236	0xbd96c7a4	-0.07362297
237	0x3cf570fa	0.029961098
238	0x3c12642a	0.008935014
239	0xbd7983de	-0.060916774
240	0xbd3b814f	-0.045777615
241	0x3ddeb0f3	0.10873594
242	0xbd867024	-0.06564358
243	0xbc965b48	-0.018354073
244	0x3cb4cbfb	0.022069922
245	0xbdbad895	-0.09123341
246	0xbc9f6132	-0.019455526
247	0xbd984746	-0.07435469
248	0xbd81a5b4	-0.063304335
249	0xbdc81a70	-0.097706676
250	0x3dda14fa	0.10648532
251	0xbdd79e1f	-0.10528206
252	0xbbd2a678	-0.006428536
253	0x3dbc32c6	0.09189372
254	0x3d553c14	0.052059248
255	0x3d8cf70e	0.068830594
