MRTE/drlte/lib/checkpoints/fed_server.pt (torch, 51193 bytes, 6 tensors)

net.0.weight f4 [64, 20]
00000000: aa4b 33bc 6850 c3bd e4a1 d8ba dcc6 2b3c
00000010: de90 dcbc bf2a 49bd 007f 40bd 5bd6 803d
00000020: c3f3 9b3d 5ffa 4039 629f 1a3d 6372 903d
00000030: 8715 8dbc 6a37 503d 8552 e53c 4690 963a
00000040: 2db9 183d 75a4 e73c b0ec b03d 53e2 cd3c
00000050: d300 3ebd 3484 b23b 9acc b3bb 0f1d fd3c
00000060: b818 813c c79d 543b 4488 94bd c2ec 88bc
00000070: 8878 d4bc 3f7d d0bc a763 833d d2d3 c13a
00000080: be22 9b3d d8af 44bd c3d9 5b3d b21b 42bd
00000090: 1e0d e33c b257 9ebb 9689 35bd 9932 32bc
000000a0: 4ab5 c53d 4a2c e93d 527a 5abd 9f89 5f3d
000000b0: 2334 933c 4962 a33c 22da 71bc 95ad d5bc
000000c0: 954a 78bd 9138 8abd 546e 1dbd 4e34 273d
000000d0: 3e33 013d f951 b23d b816 133d 43c3 6d3c
000000e0: 7082 f03c ea20 f5bb 36c5 6f3c 4c15 0a3e
000000f0: 5311 b4bc 3f18 23bd 41cf cabd f7a0 833d
00000100: 880f 7ebd ea42 083d 3966 9e3d 7c5c 6abd
00000110: 7076 383d 32e5 713d 8cc5 033e 2e46 933d
00000120: d768 d93a fd4f d93c 7a56 b6bc fdb1 ef3d
00000130: cd0c e23a cc54 11bb b265 9abd 1511 fc3c
00000140: 5838 b9bc 43b0 793d bb1f 373d aad2 673d
00000150: 0dd4 c13d 0a13 833a caba c7bc f5b0 1bbd
00000160: 9f8b c5bd 1a71 5b3d 7206 033d e8fa 0e3d
00000170: fa97 b8bd a39e a83d ddcd 22bd db65 61bd
00000180: c141 bbbd 1669 8c3d bac3 cebd 4dd8 683c
00000190: ce71 dfbd 510b 7ebd 9dea b43d cca5 21bb
000001a0: fd9a fbbd 8636 473d a0b1 0ebd c3ed a4bd
000001b0: 9953 003e b22d d23d 91b6 8d3c 325c a7bd
000001c0: a3b2 583c a5c9 b5bc d7b9 c63d 3e27 03bb
000001d0: c239 a23d 029f 863d e3b9 fcbc 4503 653d
000001e0: 860f c8bb 9f11 46bc 5dda 9dbd d6bc d63c
000001f0: 6eb3 553d 9287 e13c f7bb 40bc e3b1 d13c
00000200: cb57 d5bc 18c0 cdbb 2680 c8bd 818c 87bd
00000210: 3588 0b3c 6d26 5a3d 8b1b 483d 9a70 1ebd
00000220: 8138 ca3d 27c9 b13c 9a9b 87b6 1690 6ebc
00000230: 3e5c d8bc 48a7 b03d 232c aa3c 5870 143c
00000240: 48cc 263d 0270 b33c ed40 03bd 4dc7 4b3d
00000250: 66ab 35bd f89a 113d fd4b 153d 9b21 30bd
00000260: e57b 893d b6ba 17bc 4040 023d 3533 dfbc
00000270: 68ee f23c 7877 4a3d ea3e 843d 8c04 0b3d
00000280: 321f 31bd 56d8 893d 19f5 393d 5f7d 1abc
00000290: 324a fdbd 8223 3abd e7dd 08be a3eb d53c
000002a0: f15d 9ebd c039 75bd 54d1 18bd 6c51 093d
000002b0: 33e4 343d ed2d f93d fab8 1dbb 0a27 613d
000002c0: cb19 703d 6d8d 46bd f899 60bc cc2a ac3d
000002d0: 3674 c0bc 7d16 f93d 2172 4c3c 160b bbbc
000002e0: f6ff 0f3d c417 c13c 2cb2 953d 2868 443d
000002f0: 7ac0 04bd 6430 cabb 6928 623d c2ee 403c
00000300: 344c 1b3d a8c3 76bb 63c7 e63a 100f b0bb
00000310: b4bc 2bbd 0d3b 03be c874 b93c 548d 2c3b
00000320: 1bfd febc d7a7 c6bd c806 d83c aa9c b1bb
00000330: 9ed5 62bd f031 26bd 602e 113c 4678 963d
00000340: 8782 bc3c 2a31 003d 1a1d 013e 8461 c7bd
00000350: cdd8 9abc 1219 143c 2dd5 8f3d 5112 103d
00000360: 3def d1bc 3e43 17bd 1bcc 1ebd 3027 b03c
00000370: 36de 06bd 21f5 003d 68b6 cdbc 506d d4bd
00000380: b541 f6bb b541 6cbd 8757 2d3d 232e 813d
00000390: 0b2e 623c ecba d9bd 378a 5c3d b8b9 9dbd
000003a0: 5d9a 663b 50c8 94bd 0d7c 1fbd 1e05 18bd
000003b0: f215 d2bd 909c 223d 4454 883d 10ea a73c
000003c0: d21c b63d 266d 7e3b 5123 983c e805 9ebd
000003d0: 1d42 e03c f15d c83d 7862 1c3d 308e 523c
000003e0: d272 1cbd 82b1 013e 236d 433d 4068 94bd
000003f0: 62ba 223d 36bc ea3d 564b 473d 3eb9 d53d
-0.010943333 -0.09536821 -0.0016527739 0.0104844235 -0.026924547 -0.04911303 -0.046996117 0.06290885
0.07614853 0.00018403817 0.037749656 0.070530675 -0.01722218 0.050834097 0.02799345 0.0011487089
0.037285972 0.028276661 0.086388946 0.025132334 -0.046387505 0.0054478887 -0.005487037 0.030897645
0.015758857 0.0032442675 -0.07252553 -0.016714457 -0.02593638 -0.025450347 0.064154916 0.0014787859
0.07574986 -0.04801926 0.05367447 -0.047389694 0.027716216 -0.0048322314 -0.044320665 -0.010876321
0.09653719 0.113854006 -0.05333931 0.054574605 0.017969197 0.019944327 -0.01476148 -0.026083747
-0.060618002 -0.067490704 -0.038435295 0.040821366 0.03154301 0.08707041 0.03591034 0.014511886
0.029359072 -0.0074807303 0.014634421 0.13484687 -0.021980917 -0.039818045 -0.09902812 0.06427186
-0.06202653 0.03326694 0.07734341 -0.057217106 0.045034826 0.05905647 0.12868327 0.0719112
0.0016587031 0.0265274 -0.022258032 0.117038704 0.0017246247 -0.0022175787 -0.07538928 0.030769864
-0.022609875 0.060959112 0.044707995 0.05659739 0.094642736 0.0010000181 -0.02438106 -0.038010556
-0.09645771 0.05357466 0.03198857 0.03490725 -0.09013362 0.082333826 -0.039747108 -0.055028778
-0.09143401 0.06855981 -0.10095926 0.014211726 -0.109103784 -0.06202251 0.088338114 -0.0024665473
-0.12285421 0.048635982 -0.034837365 -0.08053162 0.1253189 0.10262622 0.017298969 -0.08171882
0.013226184 -0.022190878 0.09703415 -0.0020012404 0.07921173 0.06573297 -0.030850356 0.05591132
-0.006105366 -0.012089162 -0.07707665 0.02621309 0.05217307 0.027530465 -0.011763564 0.025597518
-0.02604284 -0.006279003 -0.097900674 -0.06618596 0.008516361 0.053259302 0.048854392 -0.038681604
0.098740585 0.021702362 -4.041428e-06 -0.01456072 -0.026411172 0.08625656 0.020773 0.009059988
0.04072216 0.021903995 -0.03204434 0.049750615 -0.04435291 0.03554818 0.03644942 -0.0430008
0.06713084 -0.009260824 0.031799555 -0.027246097 0.029654697 0.04943034 0.064573124 0.033939883
-0.04324264 0.06730716 0.04539976 -0.009429305 -0.12367667 -0.04544402 -0.13365899 0.026113337
-0.07732762 -0.059869528 -0.037309006 0.033524916 0.04416294 0.12166963 -0.0024066553 0.05496887
0.058618348 -0.048474718 -0.013708584 0.084066 -0.023492914 0.121624924 0.012478382 -0.022832435
0.035156213 0.023570903 0.07309374 0.047950894 -0.032410122 -0.0061703194 0.05521432 0.011775674
0.03791447 -0.0037653241 0.0017607029 -0.0053728893 -0.04192801 -0.12815495 0.022638693 0.0026329355
-0.03112655 -0.09699982 0.026370421 -0.005420287 -0.055379502 -0.040574968 0.008861154 0.07347159
0.023011459 0.031296887 0.12608758 -0.097353965 -0.018902207 0.00903918 0.07023082 0.035173718
-0.025626773 -0.03692936 -0.03876887 0.021503061 -0.03292676 0.031483773 -0.025111392 -0.10372412
-0.007515157 -0.05767985 0.0423198 0.06307628 0.013804923 -0.10631356 0.05384275 -0.07701439
0.0035187223 -0.07264769 -0.038936663 -0.037114255 -0.10258092 0.03970009 0.066566974 0.020497352
0.08892216 0.0038822382 0.018571528 -0.0771597 0.027375275 0.09783543 0.038179845 0.012851283
-0.03819544 0.1266537 0.047711503 -0.072464466 0.03972853 0.1146168 0.04865583 0.10435723

net.0.bias f4 [64]
00000000: 3d2f 2abe 191b 0f3c 6790 be3c 5083 eebb
00000010: 3b4f b4bc ae4f 4fbc 9d9b 6bbc cd3a 7bbd
00000020: 3944 b0bd d5a3 9ebd 2964 69bb 2fc2 2439
00000030: 86ba 33bd afb5 a4bd dd9d fc3c ee2b 8c3d
00000040: 58bc 6abc 198c da3d 0652 b4bb 782f 0c3c
00000050: f4d7 8cbd 5aa0 88bb f3ad d2bc 70cd 24bc
00000060: 3702 b93d 9f6a 8c3c fdcf 4dbc 7ebf 99bd
00000070: ce07 2d3d 90ae f63d 2e8c 293d 16ab f1bc
00000080: ffd3 04bb 1164 d1bd 1ae3 433d 6734 c13c
00000090: 9b74 cb3c 66aa a13d 233f 1b3d 9106 613d
000000a0: 1741 c63b ef96 ad3d a3e6 333c 5248 ad3d
000000b0: 0429 153d 4a1b 013b d6b1 c6bc 52d7 bb3c
000000c0: 4119 9c3d e2da ebbb 0a2c edbd d435 d4bd
000000d0: 425f f3bb 1b42 2e3d f4fb 82bc 7c2c 52bb
000000e0: 636b ab3d 1c6c a63d 1754 99bd 6a0a 10bd
000000f0: b2b5 87bc ee1b f8bd b707 9dbc cec6 943d
-0.16619582 0.008734488 0.023262216 -0.0072788373 -0.022010436 -0.012653274 -0.014380363 -0.061335374
-0.086067624 -0.07746092 -0.0035612679 0.00015712598 -0.043879054 -0.08042466 0.030836994 0.068443164
-0.014327131 0.10671253 -0.005502942 0.008556239 -0.06877127 -0.004169506 -0.025717711 -0.010058746
0.090336256 0.017140685 -0.012561795 -0.07507227 0.04224377 0.12045014 0.04139345 -0.029500525
-0.002026796 -0.10224164 0.047824003 0.023584558 0.024835875 0.07893829 0.03790201 0.054937903
0.00605024 0.08476054 0.010980281 0.0846106 0.03641607 0.0019700103 -0.02425472 0.022929821
0.07622004 -0.0071977237 -0.115806654 -0.103618294 -0.007427127 0.04254351 -0.015989281 -0.0032069972
0.08370092 0.08126089 -0.07486742 -0.03516618 -0.016566131 -0.12114702 -0.019168718 0.072644815

net.2.weight f4 [64, 64]
00000000: 7704 83bc 41d4 8abb 9a31 f6ba 53d8 80bc
00000010: e794 9e3c 63b5 1ebd c614 87bb 54d1 6e3c
00000020: ed39 ba3c ee89 893c 2469 0ebd b23e 4fba
00000030: bd0f 5f3c b1bf 143d bde7 3b3d 3ace 27bc
00000040: b715 87bc 1244 6abd a085 a6bc 388c 95bd
00000050: 0d8e 033b 7732 ecbc f56b e5bb d70e e2bc
00000060: e332 d8bb 4925 b63b 636e 603c 800b b03b
00000070: 87b0 ae3c fd02 343b 12b9 4fbd f32b f53b
00000080: 5f77 66bc e293 52bb 8c42 4dbd 4bc3 723d
00000090: aad2 823c 8ab3 29bd b87f 653c 18b3 50b7
000000a0: dbe1 66bd d33d f93c d6fb 4abc cf98 9b3d
000000b0: 170c 90bc 69e5 243d e05d be3b e6ee fc3c
000000c0: 85b0 bf3c 4cc4 90bd 30fa 9b3c f496 613b
000000d0: 976b 083c adc8 133c b0c5 21bd 4878 e53a
000000e0: 23e2 d7bc 8046 efbc 255a d8bc c2fb f9bb
000000f0: 5332 a7bc 1b14 6bbd 5683 6fbc b6ef 1bbd
00000100: 9ef3 c73c 7fac ccbc 0b8b 123d 9df5 48bc
00000110: c2bc 9dbb a705 343b 22c9 a23c 653f b23d
00000120: 2695 bbbc 2f00 54bb e654 cabc 3422 eb3b
00000130: f030 3bbd 56e8 dabb c4e1 d5bc 40ee 00bd
00000140: 66b2 343b 23bf 643d 2728 a03c ee1f e5bc
00000150: 90e5 033d 8204 283c e3cb 2b3d ab3a 4d3d
00000160: 96e5 4fbd 560b 17bd 8809 fe3b d788 24bd
00000170: 7fb8 a4bc 2d46 f6bc 53ea 973c 5b52 5c3d
00000180: f445 f83c 1885 0f3d 2b38 74bd ae0a 57bd
00000190: aa7a 2abc 326e d8b9 7413 cdbc 6521 293d
000001a0: c685 2cbd d2b9 e43d 5c8d 62ba 25b3 e83c
000001b0: 0a76 aabb 7c0f 0abd c56a 3b3d 7c53 69bd
000001c0: 280d 42bd 1304 1e3d faf3 a83c e9d5 263d
000001d0: c6f6 e73c e042 5cbc 7028 bebc f2a8 e83c
000001e0: f58e 4dbd 1a59 1cbc ea12 de3c 9271 c6bb
000001f0: a6a7 55bc 8a61 fb3c a393 0fbc e775 b9bc
00000200: c804 293d 1612 703c b27a 0439 4eed 803c
00000210: b07b 323d 5221 783c 840f 02bc 7e4f 4ebc
00000220: 5ad5 bcbd a3f4 5cbc 6e8c 393d a3aa 633c
00000230: 3b81 5bbc b400 84bd 70e4 d7bc d0cc bc3c
00000240: 5653 0ebc 427d ffbc d682 963c d56e 763c
00000250: aa0b 693c 5614 9dbc 43bf c43c b237 26bb
00000260: 3698 d83c 6aca c2bd 187c febc 7ba1 cfbc
00000270: ecdd 1f3c 3458 0f3c 82f4 d7bb 3ae1 383d
00000280: 8353 1c3d 80fd 3bbd da91 ba3c 3dfb 29bd
00000290: c139 433d 5633 513c 453b d53c 35f8 deb8
000002a0: 734e 973d 93b2 62bd 9d34 f9ba 93ee e9bc
000002b0: 5b2f 723d a31e b53c 684b 9dbc 4dce 973b
000002c0: b042 57bc a661 0a3d 9296 7ebc 969e b6bc
000002d0: 93c8 5bbd cbda 5d3d a2d1 c93b 4d4d e43c
000002e0: 6275 bc3c 46da a73c 8d18 3f3c 7553 fb3b
000002f0: 4218 f2bc 62f3 39bc e51b 44bd fe3b bebc
00000300: b53d 943c 7c4e c33c 3a53 0e3d cae4 523c
00000310: 8a3b a2bd 79a2 9cbc d640 603c 84c4 0fbd
00000320: 17c9 1d3d fa62 3a3d 6c4d c4ba ed8b 503d
00000330: 1249 003c 9f1a b83c 6625 1a3d 4bcd b43c
00000340: af5f 383d c095 943d 1deb 313b d4d1 8cbc
00000350: 2cf5 373d 823f 2d3d ef18 1ebc d862 903b
00000360: b30c e03c be35 e1bc bc37 38bd d75c 2a3d
00000370: ed5d ba3b 0baa ca3b f0ad 1ebd 7962 353d
00000380: 8844 88bd c4a0 c9bc 8b67 36bd 3a5b d7b6
00000390: e802 e73b c38a a7bc 8c67 9f3b 0a28 93bd
000003a0: b8df 143d ae59 6abb 1837 22bc e6fe 123d
000003b0: fef0 89bb efae 20bd 03e7 50bc 4981 8a3b
000003c0: b46d d3bc 3eee 2f3d 9dcf 7a3b 5e0e 1cbd
000003d0: 86ac fd3c a19f 56ba 2f3a 11bd 6344 153d
000003e0: 8bfa c2bc 1501 553c dee9 7cbc f359 883c
000003f0: fd2f 99bc 3b61 7ebc 07ca 01bd fd77 45bd
-0.01599334 -0.0042367284 -0.0018783093 -0.015728151 0.019358112 -0.038747203 -0.0041223494 0.014576275
0.0227327 0.016789403 -0.03476824 -0.00079057657 0.013614592 0.036315624 0.0458753 -0.010242039
-0.016489847 -0.057193823 -0.02032739 -0.07302135 0.0020073683 -0.028832657 -0.007001395 -0.027594967
-0.006597863 0.005558644 0.013698193 0.0053724647 0.02132441 0.0027467601 -0.050713606 0.007482046
-0.014066546 -0.0032131602 -0.050112292 0.059268277 0.015969593 -0.041430987 0.014007501 -1.2439465e-05
-0.056367736 0.030424988 -0.012389144 0.07597505 -0.01758389 0.040257845 0.0058095306 0.030875634
0.0233996 -0.07068691 0.019040197 0.003442225 0.008326433 0.009020013 -0.03949517 0.001750716
-0.026352948 -0.029208422 -0.026410172 -0.007628889 -0.020409739 -0.05739222 -0.014618715 -0.038070403
0.024408158 -0.024984596 0.035777133 -0.01226559 -0.0048137615 0.002746919 0.019871298 0.08703498
-0.022898268 -0.0032348742 -0.024698686 0.007175708 -0.045700967 -0.0066805286 -0.02610863 -0.031477213
0.0027572154 0.055846345 0.019550396 -0.027969327 0.03220135 0.010254981 0.04194249 0.05010478
-0.05075606 -0.036876045 0.007752601 -0.040169563 -0.020107506 -0.03006276 0.018544352 0.053789478
0.030306794 0.035039037 -0.05962388 -0.05250042 -0.010405222 -0.00041280832 -0.02503369 0.041291613
-0.042119764 0.11168255 -0.000864228 0.028405735 -0.0052020596 -0.033706173 0.04575612 -0.056964383
-0.047375828 0.038578104 0.02062415 0.040731344 0.028315913 -0.013443679 -0.023212641 0.028400872
-0.050185163 -0.009542728 0.027108628 -0.006056019 -0.013040459 0.030686159 -0.008763227 -0.022639228
0.041264325 0.0146527495 0.00012634209 0.015738156 0.04357499 0.015144663 -0.0079382695 -0.012592195
-0.09220381 -0.01348606 0.04529994 0.013895663 -0.01339751 -0.064454466 -0.026354045 0.023046881
-0.008686861 -0.031187657 0.018372934 0.015041073 0.014223972 -0.019174736 0.024016982 -0.0025362787
0.026439767 -0.09511264 -0.031065032 -0.025345555 0.0097575 0.008749057 -0.006590427 0.045136668
0.03816558 -0.045896053 0.022774626 -0.041499365 0.0476625 0.012768587 0.026029238 -0.00010632017
0.0738801 -0.055346083 -0.0019012872 -0.028556144 0.059127193 0.022109335 -0.019200996 0.0046327473
-0.013138458 0.03378453 -0.015538828 -0.022292417 -0.05365808 0.054163735 0.0061590234 0.027868891
0.023005191 0.020489823 0.011663568 0.007669861 -0.029552583 -0.011349531 -0.047878165 -0.023221966
0.01809583 0.023841135 0.03474734 0.01287193 -0.079215124 -0.019120442 0.013687333 -0.03509952
0.038521852 0.045504548 -0.0014976687 0.050914694 0.007829921 0.022473631 0.037633322 0.022070548
0.045013126 0.07255125 0.0027148195 -0.017189898 0.04491155 0.042296894 -0.009649499 0.0044063143
0.027349805 -0.027491447 -0.044975027 0.041592445 0.0056874664 0.0061848215 -0.0387401 0.044283364
-0.06653696 -0.024612792 -0.04453234 -6.4181195e-06 0.007049907 -0.020451909 0.0048646387 -0.07185371
0.036346167 -0.003575902 -0.009900831 0.03588762 -0.0042096367 -0.03922933 -0.01275039 0.004226838
-0.025809146 0.042951815 0.003827072 -0.03809964 0.030966055 -0.0008187239 -0.03545588 0.03644217
-0.023801109 0.013000746 -0.015436618 0.016644454 -0.01869964 -0.015526111 -0.03168681 -0.048210133

net.2.bias f4 [64]
00000000: db48 4f3c d970 3b3c f26d 4f3b 0d45 a8ba
00000010: 9733 eb3b 8b75 973d 6337 58bb f068 2dbd
00000020: fa40 073d f943 df3c da94 253c 54a1 02bd
00000030: ee29 c7bc 4880 10bd ea85 1f3d b2da f8bc
00000040: dc60 01bd ea87 27bc f3cd a23b b85e 51bd
00000050: 15b2 4fbc c35e 2dbd f820 143d 2426 a6b9
00000060: 06f1 2fbd 7b13 61bd 237f 143d 4cd3 13bd
00000070: 2a50 1d3c 7222 0ebd f014 bcbc 85a6 a63b
00000080: c787 4b3c 3fc0 27bd da05 c3bc ed40 aabc
00000090: ca8e 8439 d8e6 d9bc 4f15 983c 5f48 313d
000000a0: b2f3 46bb 2ab1 19bc 99e1 4fbd 1743 603d
000000b0: 5c09 0a3c 7276 89bc 92b3 993d d1df 093d
000000c0: b13a fb3c 7ee6 d73c c219 d0bb 4ab6 35bd
000000d0: ba7c c1ba cab9 c23a 5b46 0f3c 4dd1 0ebc
000000e0: 94b6 ac3c b0f7 073d 2f9b 60bd 349d bc3c
000000f0: 5a9c 51bc 9245 053d b9dd 1bbc 4999 373c
0.012651647 0.011440479 0.0031651226 -0.0012837962 0.007177781 0.073954664 -0.0032991997 -0.042336404
0.03302095 0.027254092 0.01010629 -0.031892136 -0.024311986 -0.03527859 0.03894607 -0.03037772
-0.031586513 -0.0102252755 0.0049683987 -0.05111572 -0.012676735 -0.0423267 0.036164254 -0.00031690404
-0.042954467 -0.05495022 0.03625406 -0.03609018 0.009601632 -0.03470082 -0.022959203 0.0050857686
0.012422509 -0.040954825 -0.023806501 -0.020782912 0.00025283388 -0.026599333 0.018564848 0.04328191
-0.0030357656 -0.009380618 -0.050752256 0.05475148 0.008425083 -0.016780112 0.075049534 0.033660714
0.030667635 0.026355024 -0.006350727 -0.044363298 -0.0014761903 0.0014856395 0.008744801 -0.008716893
0.021083154 0.033195198 -0.054835495 0.023024179 -0.012793625 0.03253705 -0.009513312 0.01120598

net.4.weight f4 [100, 64]
00000000: 54ab 803d 4c36 0bbd 5745 c8bc ddd3 d33c
00000010: 98cf 0abd 4e5e d33c fd79 b23c cb4f f33b
00000020: e05c 8c3b b9ee af3c b699 ee3b 2f98 d4bc
00000030: a8f4 873d fe3d c63c 6a50 47bc 5639 bfbb
00000040: b440 9b3c d799 13bd b6af 0bbc 5baf 72bc
00000050: 8b48 893c 1afb 8cbc 0acf 0f3c 66d0 c2b9
00000060: 29de 993c e6aa 8ebc e347 1bbc 0977 643c
00000070: d2b5 6abc a56d 5a3c c77b 653d 210f 693d
00000080: f21f 6c3d c2a7 8b3c 3557 333d d802 5abc
00000090: a3ea 993c f5a9 0b3d 8874 eabc 3756 af3c
000000a0: f212 e23c dc80 bd3c 2aac 113c a18d 8e3a
000000b0: cb82 1d3c fbf9 e1bb 6dc4 08bd ecab 8bbc
000000c0: 4009 b33d 2e70 4c3d ef79 9b3c 1a68 193a
000000d0: 19ac 4bbc 0eb5 9a3c d400 6bbb 3824 8a3d
000000e0: ae3c a83b d370 3bbb acc2 8b3c 1d1c b73c
000000f0: a22f c93a 9604 8b3d a45b 60bc 8afe 403d
00000100: 281f 713d 0936 2fbb da04 443b ac08 e33c
00000110: f9a6 04bd a417 1f3c b1c0 26bc 278f 57bd
00000120: a090 31bc 6056 a7bc 2e16 583c b5b4 323d
00000130: 49c5 66bc aed9 df3c 4b6e 063c 6727 0b3c
00000140: 9c6e b839 8bf9 dfbc 6337 193d 183c 91bc
00000150: 1fe9 223d 68eb 2b3b 6c7d 573d 9cc1 1b3d
00000160: c5e2 e1bb 2bf2 60bd 656a 7fbb cd53 27bd
00000170: 2cce 34bb f667 943c 7482 23bc 132a 443c
00000180: 6cd5 52bc 2a87 123c bee3 773d 211a 9f3b
00000190: c656 1fbc ad94 7d3d 4679 143c 55fe 4b3c
000001a0: 4a77 5e3a 3222 cebc b82a ec3b 8094 25bc
000001b0: 9945 90bc 62a3 3b3d e3fe 203d a146 92bc
000001c0: 64ee 96bc 3fdd 51bd 4e8b 823d 9802 adbc
000001d0: 0b55 703b 962e 2f3d bf04 96bd 144e 35bd
000001e0: b951 8bbd daeb ab3c 3c21 523d b46d 423c
000001f0: 04b0 3a3d 91d3 cdba ddfd b23c bf10 2ebd
00000200: c32a 813c b2fd 89bd 3df5 f1bc 8a45 8ebc
00000210: 08dc 77bb e11d 6f3d c548 a33a 82b7 483d
00000220: 0b4a b23b 9de1 193c d5f1 a03b 67d4 f4bb
00000230: 4c36 9cbc 2122 fbbb baf2 753d 31fe 0fbd
00000240: afda 39bd 43e4 a1bc 5ea3 40bd d0d3 d3bc
00000250: d8e5 b13b 2a8d 81bc 93e3 d23b b7c4 4d3d
00000260: f26a 65bd 89f7 803c e2c6 2eba 8191 a3bc
00000270: 0833 843d c856 b73c 3a3e 16bc a891 79bc
00000280: 7618 543d 60f0 0bbd e13b 0e3d 3e5b b53b
00000290: 08df 63bc cc8d 01bc 258c 2bbd f6d2 043d
000002a0: fd5e 203d db54 de3c 0782 f43c d03a b1bc
000002b0: 20a4 9bbd 60c0 8cba 61d1 fc3c 7831 bb3d
000002c0: 879a 56bd 874d 943c 6dbb bb3c 48dd 6bbb
000002d0: c755 3f3d 81ca f9bc 2f91 473c ee97 7dbd
000002e0: ad25 7dbc ea64 2dbd ad9e 753b 3e03 bebc
000002f0: 428e b53c c1d2 5bbc 1c86 43bc b197 fcbc
00000300: 12df 893c 3d33 083c c698 9a3c 3749 5cbc
00000310: a009 42bd e1bc 063c de51 8abd 2c03 72bc
00000320: 3ee5 bcbc 976e 823d 82b3 633b 1c25 023d
00000330: cc6a 643c fc94 ddbc fad3 0a3d 863b 46bd
00000340: c6f2 683d 6a55 8d3c 426a 13bc 52e1 813c
00000350: 4f67 c73c d9d4 acbc 4197 1c3d 5711 11bd
00000360: f556 8abc 1adc 933d c8c0 83bc a783 5d3b
00000370: f538 e6bb b990 19bc 5947 243d 4390 ccbb
00000380: dbf2 c03c 325e d53d 8aba 4dbc 5383 60bc
00000390: 59ea 0e3b 6ecc 043d b178 d53c e687 a23c
000003a0: dab1 bcbb c3cf d3bc 68b8 42bd 083f 96ba
000003b0: 78a0 e83c 0081 e439 bf4a e0bc a796 933d
000003c0: ccd4 533d 61fd b3bb 9a60 73bd 2777 afbc
000003d0: c68d 0b3c 1095 a43c 4830 68bb 7359 efbc
000003e0: 1038 3f3d 31af 1abc f153 853d 5432 e4bc
000003f0: 8e57 d03c 7b20 14b9 3eae 963c 6041 0e3d
0.06282678 -0.03398733 -0.024447126 0.02585786 -0.033889383 0.025801804 0.021786684 0.0074252835
0.0042835325 0.021476137 0.0072815074 -0.025951473 0.06638461 0.024199482 -0.012165168 -0.0058356924
0.018951751 -0.036035385 -0.0085257795 -0.014812316 0.016758224 -0.017209578 0.008777389 -0.00037157832
0.018782692 -0.017415475 -0.009477588 0.013944396 -0.014325576 0.013331805 0.056026246 0.056899194
0.057647653 0.017047767 0.04378434 -0.013306342 0.018788641 0.03409763 -0.02862002 0.021403415
0.027596924 0.023132734 0.008891145 0.0010875949 0.009613703 -0.006896255 -0.03339045 -0.017049752
0.08741999 0.04991167 0.01897904 0.0005851999 -0.012431168 0.018885162 -0.0035858648 0.067451894
0.0051341867 -0.0028601184 0.0170606 0.022352273 0.0015349279 0.06787984 -0.013693724 0.047117747
0.058867604 -0.0026735088 0.0029910118 0.027714096 -0.0323858 0.009710226 -0.010177777 -0.052626755
-0.010837704 -0.020426929 0.013188882 0.043629367 -0.014085122 0.027325477 0.008205007 0.008493281
0.00035177625 -0.027340671 0.037406337 -0.01772885 0.039773103 0.0026232842 0.052609846 0.038026437
-0.006893488 -0.05491845 -0.0038973328 -0.040851403 -0.0027588708 0.018115979 -0.009979833 0.011972922
-0.012868267 0.008943358 0.060519926 0.0048554097 -0.009725278 0.061909366 0.009062117 0.012450774
0.00084864034 -0.02516279 0.007207241 -0.010106206 -0.017611312 0.04581011 0.03930558 -0.017855944
-0.01842422 -0.051236387 0.063742265 -0.0211194 0.0036671783 0.042769037 -0.07325124 -0.044263914
-0.06802697 0.020986486 0.051301226 0.011866976 0.045578018 -0.001570331 0.021849567 -0.04249644
0.01576746 -0.06737842 -0.029535884 -0.017367143 -0.0037820358 0.058378104 0.00124576 0.04900313
0.0054409555 0.009392169 0.004911641 -0.0074716094 -0.01906886 -0.0076639806 0.060045935 -0.035154525
-0.04537457 -0.019762164 -0.0470308 -0.025857836 0.005429011 -0.015814383 0.0064358204 0.05023643
-0.056010194 0.015743034 -0.0006667209 -0.019966843 0.06455046 0.022380248 -0.009170109 -0.015232481
0.05178114 -0.034164786 0.034725074 0.0055345586 -0.013908155 -0.007907342 -0.0418817 0.03242775
0.039153088 0.027140072 0.029847158 -0.02163449 -0.07599664 -0.0010738485 0.030861558 0.09140295
-0.052393463 0.018103374 0.02291652 -0.0035990048 0.046712663 -0.03049207 0.012180611 -0.06191247
-0.015450877 -0.042332567 0.0037478611 -0.023194905 0.02216256 -0.013416947 -0.01193383 -0.03083405
0.016830001 0.008312997 0.018871676 -0.01344519 -0.04737246 0.008223743 -0.06753896 -0.014771264
-0.02305853 0.063687496 0.0034744446 0.03177367 0.013941478 -0.02704858 0.033893563 -0.04839661
0.05687215 0.017252643 -0.008997502 0.015854511 0.024341254 -0.021097587 0.038230184 -0.035416927
-0.016887167 0.072197154 -0.016083136 0.0033800395 -0.007025833 -0.0093728835 0.040107105 -0.0062427833
0.023553303 0.10418357 -0.012556681 -0.013703185 0.0021807163 0.03242152 0.026058527 0.019840192
-0.0057585062 -0.025855904 -0.047539145 -0.0011462877 0.02839683 0.0004358366 -0.027379392 0.07206469
0.05171661 -0.0054928516 -0.0594183 -0.021419121 0.008517688 0.02009061 -0.0035429168 -0.029217457
0.046684325 -0.009441183 0.06510151 -0.02785603 0.025432374 -0.0001412648 0.018393632 0.034730315

net.4.bias f4 [100]
00000000: 7733 193c 87e1 833b 117c eb3c 067b 5abd
00000010: fe0f 393c b8b0 e93c d4a5 893d a4be b13b
00000020: cdcf d2bc 099d 72bd 982c 1b3c 59ae 0a3c
00000030: 553b 96bc b966 86bc e7ab 0e3d d7c3 35bd
00000040: 93ce 373c 22a4 06bd a629 083c 354a 843c
00000050: a1a2 97bc cab9 c7bc 0aac 573d 3629 a5bc
00000060: 8e47 573d cd4e 553c 8fd6 35bc 93d8 713d
00000070: 05ed bcba c866 b1bc 76a3 343d 0371 09bd
00000080: b836 4e3d 1ff2 adbc 3dd6 7eb8 11a7 b43c
00000090: 8df2 813d cb9e 8b3b a2ff 37bb c312 99bc
000000a0: 6d11 c03c e8a1 1ebd eb1c 973b 2b8f e73b
000000b0: d689 94bc 0629 5c3c bff2 27bc f26a ebbb
000000c0: 38f3 f33b b330 363d a9fa a2bc e090 2e3d
000000d0: a4f6 6a3d 60fb 883b 4bda 313d cd7a f8bc
000000e0: 1be0 19bd e39f 58bc 05c4 063c d695 9c3c
000000f0: 1ce4 253c 4ab7 8f3c d2c3 bc3c 6677 1f3c
00000100: 53b9 043d 62e5 4d3d 69f1 5a3c d66c a0bc
00000110: 9536 2dbc 16bc ae3d a7ca 623c c0ee fd3c
00000120: c699 21bd 6cdb a4bb 721c bebc 1376 6e3d
00000130: a946 cb3b 05b4 633d e129 83bc ac0a 9fbc
00000140: a191 003d 67a1 2fbd 5dd0 093c 0b87 03bc
00000150: cec8 443d d058 edbc 17ac b2bc e456 2a3d
00000160: 45d6 aa3c 178f 3d3c ba36 a0bc d90a cfbb
00000170: f918 0abd 804e 85bd 9338 a53d 794c 223c
00000180: 0ac2 07bd 8bbe 123d 8665 21bc 1e5e 47bd
0.009350649 0.0040246877 0.028745683 -0.05333998 0.011295317 0.028526649 0.06721082 0.0054243375
-0.025733853 -0.05923179 0.009471081 0.008464419 -0.018338839 -0.016406404 0.034831908 -0.04437622
0.011218685 -0.032871373 0.008310711 0.016148666 -0.018510165 -0.024380583 0.052654304 -0.020161252
0.052558474 0.013019276 -0.011098518 0.059044432 -0.0014413899 -0.021655455 0.0441012 -0.033555042
0.050345153 -0.021233616 -6.0757844e-05 0.02205232 0.06345091 0.004260873 -0.0028075953 -0.018685704
0.02344581 -0.038728625 0.0046116016 0.0070666275 -0.018132132 0.013437515 -0.010250746 -0.0071843797
0.0074447654 0.044480037 -0.019894915 0.042618632 0.05736412 0.004180357 0.04342107 -0.030331993
-0.03756724 -0.013221714 0.008225446 0.019114416 0.010125186 0.017543454 0.023042593 0.009733057
0.0324033 0.050267585 0.013363221 -0.019583147 -0.010572095 0.08531968 0.013842261 0.030997634
-0.03945329 -0.00503104 -0.023206923 0.058218073 0.0062034917 0.055591602 -0.01601118 -0.019414268
0.031388883 -0.042878535 0.008411494 -0.008027802 0.048043065 -0.028973013 -0.021810574 0.04158677
0.020854125 0.01156976 -0.019557346 -0.006318432 -0.033715222 -0.06509113 0.08067431 0.009905928
-0.033144034 0.035826247 -0.009850865 -0.04867374
